Pretrained/10-3-128-1.pt (torch, 275271 bytes, 6 tensors)

lstm.weight_ih_l0 f4 [512, 2]
00000000: 6cde 9dbd f813 96bc 2016 e0bd 1056 323e
00000010: 6017 03be 509f 80bd c562 953d 09b9 9cbd
00000020: a677 4cbe 5a5e 0dbd 602c 6e3c 3a87 50bc
00000030: 88c1 7c3d 83c6 b73d 3682 7ebc eb65 203e
00000040: 8665 a53d e1fa ddbd 80d6 1fbd 6ab8 5fbd
00000050: 7b24 08be 594e 3e3d 5b77 17bc f7b2 24bc
00000060: e928 d2bd 965a c83d cd42 c93d 6164 41be
00000070: 6945 11be c4e2 d93c 93dd b7bd 6eb1 c8b9
00000080: 3b58 a93d 755f 3a3d c690 6bbd fbd9 013e
00000090: 767b 393d 87e7 10be 974d d7bc 1a0f 813c
000000a0: 2a55 023e 1831 b53d 5817 88bd 4ab0 2cbd
000000b0: 7b6b ddbd 5680 0d3c 9ea0 c9bd 7f13 d93d
000000c0: e94b 63bd ce80 f23d c9d0 2e3e 5dd9 8cbd
000000d0: d6d9 a33d 57c8 11be 1868 3ebd f838 1f3c
000000e0: 5f73 5c3e d033 543e eced a6bc 0337 02bc
000000f0: 39d0 7ebd 6631 813d 4403 7fbd 5d7d 63bd
00000100: 5af2 adb8 8520 fa3c eaf9 933d ba2e 50bd
00000110: 7d46 f63d 37bc 7ebe 2982 12bd 5ca6 e5bc
00000120: aef6 f1bd 896b a5bd 0308 a1bd 96a1 9b3b
00000130: c3d9 43be f993 22bd 9530 dd3c 2671 aebd
00000140: 9825 9f3c 9089 b33d 08a4 a73c 05ee 9d3d
00000150: 2f83 2cbe d9ec 08bd ba6b 0e3e 6028 07be
00000160: f373 3b3d 0839 17be 4529 e23d 26d9 d73c
00000170: aabd 9bbd 21ea 113e e177 a53d 4300 5b3d
00000180: f109 1b3d fcf9 38bd 75da a0bd e5df 59bd
00000190: 55e4 d33d a593 503d 825a f33c c3d5 b8bd
000001a0: 7bdc a3bb ee2f cd3d 16ac 843d 0703 eabc
000001b0: 9eab 40bc d29d da3d 585d 61bd f64f a0bc
000001c0: f3b0 52bd 75a7 e33d c23e 86bd 0b9a cdbd
000001d0: f121 8abd f736 cabd 3617 123e 1b70 063e
000001e0: 5cc1 07be a44d 54bd f7c4 b3bd 6403 c1bd
000001f0: 9a7a 68bb d739 d2bb 9249 da3c 0f7a febd
00000200: 346f 853c 28f1 95bd d643 03be 96e5 b0bd
00000210: 1fb1 1d3c df80 853d a9d7 863d 23f4 62be
00000220: 043d c2bd f12c 513d 1006 933d a4e9 10bd
00000230: 892a e83d 2449 2c3e 4807 f1bd acdf b63c
00000240: 05ea 953c e66b 433e cb16 48bd 8221 e9bd
00000250: 47d1 3bbe 9cdc 66bc ea33 133e 9abf 363c
00000260: 7b11 f8bd 5c82 bdbd d8b1 edbd 4a63 8bbd
00000270: 86f8 33be 543b 2abd 155e 72bd 4f3b e83d
00000280: 0008 e8bd f145 3c3d 0f02 febc 9f60 6e3d
00000290: e291 d53d db28 a1bd c117 cd3c 833f 043c
000002a0: d8c5 ecbc 6f9e abbd e67c c33c 8fd5 7cbc
000002b0: af10 203d a1a1 09be db63 22be feec caba
000002c0: 0daa 8c3d 2843 c1bc 50e6 223d b293 d4bd
000002d0: d9ed 71bb 8ca1 ad3d ffda 42bd 8c4a 973d
000002e0: dcae dcbc dab1 473e 1162 5e3d c81c 0c3e
000002f0: ca48 f1bc c0f7 933e 65da 8ebd 4042 ffbd
00000300: 514f 1abc 94c9 1fbd 1a21 5cbd 85ff 463d
00000310: 070c a5bd 5230 3abc dcae cc3d 90d8 cebd
00000320: 0605 20bd 59fa 7c3d d06c 69bd 4c6e ce3c
00000330: 53f8 1fbd 80ed cbbd b539 273d 437e b2bd
00000340: d6ba 29bd bcf0 46b8 656c a1bc eff3 b93d
00000350: d8d9 84bd ba09 993d 0701 06be 3de7 953b
00000360: df36 7dbd d502 593c 9f95 b5bd 1703 be3c
00000370: 7ad3 023e 9101 5dbe ca70 1cbe d9d8 02be
00000380: b4ba c03d b6f8 b6bc 6cef c9bd 78d3 38bd
00000390: 7238 5b3d 054b 313d 0d58 adbc 1f1c e0bc
000003a0: 2142 ebbd 9450 c93d a826 6ebd 3f88 9b3d
000003b0: 050a bebc 99b9 12bd ef94 0bbe bfcf d83b
000003c0: 13bc 4dbd ab25 e73c 7263 5d3c 740c 943e
000003d0: cd29 c2bc 53ed 163e 3595 aa3b e8c0 9dbd
000003e0: ac98 903d d169 743d eb9e 8e3d 2aca d83d
000003f0: 0695 bbbc db53 983e 6d85 303d b72d 14be
-0.07708439 -0.018320069 -0.1094172 0.17415643 -0.12801886 -0.062803864 0.072942294 -0.0765248
-0.19967517 -0.03451381 0.014536947 -0.012727553 0.061708003 0.0897341 -0.015533974 0.15663879
0.08076005 -0.10838867 -0.039022923 -0.05461923 -0.13295166 0.046461437 -0.009244765 -0.010052434
-0.10261709 0.09782903 0.09827194 -0.18885948 -0.14186634 0.026597388 -0.08977809 -0.00038279168
0.08268782 0.04550119 -0.057511114 0.12680809 0.045283757 -0.1415082 -0.026282115 0.015754271
0.127278 0.088472545 -0.066450775 -0.04216031 -0.10811516 0.008636555 -0.098450884 0.10599422
-0.055492315 0.11840974 0.17071833 -0.06877396 0.08000533 -0.1423658 -0.04648599 0.009718172
0.21528386 0.2072289 -0.020377122 -0.007947686 -0.062210295 0.0630825 -0.062258974 -0.055539478
-8.294424e-05 0.030533085 0.07225402 -0.050825812 0.12025163 -0.24876486 -0.03576866 -0.028033428
-0.118146285 -0.08077151 -0.07862856 0.004749487 -0.19126038 -0.0396919 0.027000705 -0.08517675
0.019427106 0.08766472 0.020463958 0.07711414 -0.16846918 -0.033429 0.13908282 -0.13198996
0.045764875 -0.1476785 0.11043028 0.026348662 -0.07604535 0.1424947 0.08079506 0.053467046
0.037851278 -0.04516028 -0.07854167 -0.053192038 0.10346285 0.050922055 0.029706243 -0.09025147
-0.0050006486 0.100189075 0.06478135 -0.028565897 -0.011759667 0.10674633 -0.05502066 -0.019569378
-0.051438283 0.11115924 -0.06554939 -0.10039147 -0.06744755 -0.09873765 0.14266667 0.13128702
-0.13257354 -0.051831856 -0.087778024 -0.09424475 -0.0035473467 -0.0064155865 0.02664641 -0.124256246
0.016288377 -0.073213875 -0.12818846 -0.0863754 0.0096247485 0.06518721 0.06584103 -0.22163443
-0.09484294 0.05106825 0.07178891 -0.035379067 0.11336238 0.16824776 -0.11768967 0.022323452
0.018300066 0.19084129 -0.048849862 -0.11383344 -0.18341552 -0.014090683 0.14375272 0.01115408
-0.12112709 -0.0925338 -0.11606187 -0.06806047 -0.17575273 -0.041560486 -0.059171755 0.11339437
-0.11329651 0.04596514 -0.031006841 0.058197614 0.104282156 -0.07869121 0.02503574 0.008071783
-0.028902933 -0.08379828 0.023863267 -0.015431776 0.03907841 -0.13440563 -0.15858404 -0.0015482006
0.06868372 -0.023591593 0.039770424 -0.10379733 -0.003691545 0.08478078 -0.047572132 0.073872656
-0.026938848 0.19501439 0.054292742 0.13682854 -0.029453654 0.28899956 -0.06975249 -0.12463808
-0.009418325 -0.0390106 -0.053742506 0.048583526 -0.08058935 -0.0113640595 0.09994289 -0.100999
-0.03906729 0.061762188 -0.056988537 0.025199078 -0.03905518 -0.09957409 0.040826518 -0.08715489
-0.041437946 -4.743108e-05 -0.019705007 0.0907973 -0.06486863 0.07472558 -0.1308633 0.004574685
-0.061819907 0.013245304 -0.088664286 0.023194833 0.12775984 -0.21582629 -0.152774 -0.12778033
0.09410611 -0.022335391 -0.09860119 -0.045123547 0.053520627 0.043284435 -0.02116015 -0.02735716
-0.114872225 0.09829822 -0.058142334 0.07594346 -0.023198137 -0.03582153 -0.13631032 0.006616562
-0.05022819 0.028216204 0.013512479 0.2891575 -0.023701573 0.1473897 0.005205775 -0.077028096
0.0706037 0.059671227 0.06963905 0.10585435 -0.022898208 0.29751477 0.043095995 -0.14470564

lstm.weight_hh_l0 f4 [512, 128]
00000000: 6ce8 33bd d9a2 0d3d 4eca c9bc 410d f83c
00000010: 82b4 c4b9 8aa0 113c 982a 25bd c2b8 003d
00000020: a39c 2a3d 01ed da3c a6ba 6cbb 992d ed3d
00000030: 32b2 76bd 07dd 203c d027 023e 3bf0 fc3d
00000040: 3a19 80bc 5410 1d3b 860e 31bd 3764 06bd
00000050: aa76 1e3d 92a7 df3d 1320 85bd 0330 dc3d
00000060: 07d1 163e ec6f 90bd 59b5 24bd dd3a a73c
00000070: 1c3f c4bc cdb7 3b3d 836f 653d 32cd 5fbd
00000080: deb7 3e3d b97f b7ba ee48 03be b78c 5bbc
00000090: ae70 19bc fcd6 5f3b 823b f33d 8174 2ebd
000000a0: d8c6 6e3b deb5 4c3c 6646 5b3d 688e 44bd
000000b0: 8e48 173d 7be6 413d df1b 553d 67ae 7cbe
000000c0: 4c96 87bd f9f6 f7bc eab5 433c 52c0 a43d
000000d0: 52a4 923c 130b 5cbd 3e6f ea3c 8b0d b13d
000000e0: 3be0 623b 750b b03c 0d62 5f3d 669a ad3d
000000f0: ebaa 57bc e596 42bb eb7e d53d 4981 98bd
00000100: 7494 7cbd 4851 44bd 95fe e2bd 8238 063e
00000110: ea53 dbbc e143 67bd 1d01 0dbd 241b bb3d
00000120: 3b9d a23c 097e cabd aa18 163c 71b2 c4bc
00000130: ed40 d0bb 372b 013b 8dce cfbd 4e73 09bc
00000140: cd30 513c b1d6 ffbd 0014 923c 818b f5bc
00000150: b0d2 85bd 96f2 573d bb2d 683d 6635 babb
00000160: bac0 a03c 0f7a a43d 6773 aabd 8469 b8bc
00000170: f8b5 55bc 394b 56bc 1da6 afbd 867d 43bd
00000180: e8e7 18bb daeb e93c 5a38 06bd bd1f 90bd
00000190: 6c1e a5bc 846a 9a3d e328 1ebd ce56 8cbd
000001a0: 7715 923d 3a8a 07be 7aeb 28bd 05ee c4bd
000001b0: 4160 b7bd 5ade 92bc 2c3e 98bd 1787 66bd
000001c0: bc39 1dbd fba5 a83c ecd9 4e3d 69db a13d
000001d0: f211 2e3e 12fa cbbd c04a eb3d 6eb5 c83d
000001e0: feeb e53b bf3e f33c 12ea 333d 7aa9 c03c
000001f0: 4549 f03d ccb0 7cbd 2226 623d 1bc3 bf3d
00000200: 8406 c6ba 208a 11be 0bea 0fbc 1185 b23d
00000210: fb0c cdbb c6ad 1c3e 65cc a93d 4012 b83c
00000220: 1e1e 213e 6e6f ca3d 46ce 0ebd cfbd fbbc
00000230: 1ecf ca3d 9382 783c f770 f7bd 3d29 bebd
00000240: b847 813a 14e1 03bd 5a7c 4b3e 3b1b 1cbd
00000250: 093e 3d3d 5ebd fdbc b95c e33b 1ab7 87bd
00000260: 9d00 3dbc 2005 dabd 57ba 243e b6fc 4b3d
00000270: 13c5 2ebb 0c10 9bbc a4ff 0abe f739 333d
00000280: 4a5f e1bd f08e c03c 0e48 18be 2676 d03d
00000290: 4a75 09be 6476 0cbe 1a3a ea3b 290a 033e
000002a0: d8e6 093e 7239 a2bc 7102 98bc 1e9a c9bd
000002b0: 5740 063d 9dbc 3b3e 7ff0 153e 05db 063d
000002c0: 43b1 06bd 25e3 09bd 73f4 90bd 6ce6 d93c
000002d0: ce99 80bd 9b99 eb3c d8ac 3b3e bbff 32bd
000002e0: 5dd5 9abd 16c2 b13d f7a5 65bd 6548 13be
000002f0: cfd4 08be 1c83 29be 2dac c7bd 9dc4 9e3d
00000300: 8ef7 27bb ec48 323e 4e77 a93d 9770 b93e
00000310: 00f2 d43c 64c9 e93d 7a29 1b3c 5837 023c
00000320: 6f4c 84bc a85b 443d 187a 533c 7c7b 41bc
00000330: 87a0 dbbd b0d2 a03c c5ea 063e 8350 e43d
00000340: 907b 553d 3c12 a0bc d462 23bd 9254 b33d
00000350: 10b0 663d dc3e 42bc 02ff 8cbd d801 63bd
00000360: cb3e 86bc 1246 e03d 93ee 773d 6158 c93d
00000370: b3fd 94bd 6889 103e 25fb 18bd 66eb af3c
00000380: 6ee8 903d 2bd7 a23d 0805 4abb a714 2bbe
00000390: d0ed 283e 28fc 3f3b dcb4 3d3d 304b 5b3e
000003a0: 0c63 ab3d 71cf 93bc 4c66 d1bd 47a4 c33d
000003b0: bfdf c03d f6fa 843d f590 3bbe 6d22 f13d
000003c0: c32b 59be b5fe 9d3d b189 b73d 62c8 89bb
000003d0: 378e 383d 88fb 293c b201 db3c 705a d1bc
000003e0: 792e f3bc b1ba 8e3d 1e4e 17bb be25 1fbe
000003f0: 4089 abbc e042 abbc 6ece 84bd b326 003e
-0.043922827 0.03457913 -0.0246326 0.030279757 -0.00037518522 0.008888373 -0.040323824 0.0314262
0.041653287 0.02672434 -0.0036121993 0.11580963 -0.060228534 0.009818322 0.127105 0.12350508
-0.015637029 0.002396603 -0.04322674 -0.032810416 0.038687386 0.109206334 -0.06500258 0.10751345
0.14728175 -0.070525974 -0.04021201 0.02041381 -0.023955874 0.045829583 0.05601455 -0.05463905
0.04656207 -0.0013999856 -0.12820789 -0.013400248 -0.009365244 0.003415524 0.118765846 -0.042591576
0.0036434438 0.012494532 0.053533934 -0.04798737 0.036934428 0.047338944 0.052028533 -0.24675904
-0.06620464 -0.030269133 0.011945227 0.08044495 0.01790062 -0.0537215 0.028617498 0.08645161
0.0034618515 0.021489838 0.054536868 0.08476715 -0.013163309 -0.002969199 0.10424598 -0.07446534
-0.061665013 -0.04792908 -0.11083714 0.13107494 -0.026773412 -0.05646122 -0.03442489 0.09136036
0.019850364 -0.098873205 0.009161154 -0.024010869 -0.006355396 0.0019709596 -0.10146818 -0.008389307
0.012767983 -0.12492121 0.017831802 -0.029973747 -0.06534326 0.052721582 0.056684237 -0.005682635
0.01962315 0.08031093 -0.083227925 -0.022511251 -0.013043873 -0.013079458 -0.085766055 -0.04772713
-0.0023331586 0.028554846 -0.032768585 -0.070373036 -0.020156108 0.075398475 -0.03861321 -0.06852494
0.07133 -0.13236323 -0.041240193 -0.09615711 -0.08953906 -0.017928291 -0.07433733 -0.056281175
-0.038385138 0.020586958 0.050500795 0.07903177 0.16999033 -0.099598065 0.11488867 0.0980023
0.007016658 0.029693006 0.0439244 0.023518313 0.11732725 -0.061692044 0.055212148 0.09363385
-0.0015108143 -0.14212847 -0.008783828 0.08716787 -0.006257651 0.15300664 0.08290938 0.02246964
0.15734145 0.09884535 -0.034864686 -0.030730156 0.09902786 0.01516785 -0.12082093 -0.09285209
0.0009863293 -0.032197073 0.19871655 -0.038111906 0.04620174 -0.030974086 0.0069385436 -0.06626721
-0.011535791 -0.10645509 0.16086708 0.04980155 -0.0026667758 -0.01892855 -0.13574082 0.04375645
-0.11004503 0.023505658 -0.14871237 0.10178785 -0.13423648 -0.13717037 0.0071480395 0.12796845
0.13466966 -0.019802783 -0.018555852 -0.09843849 0.032776203 0.18333669 0.14642523 0.032923717
-0.032883894 -0.033663888 -0.07077875 0.026599132 -0.06279336 0.028759768 0.18327653 -0.043700915
-0.07560227 0.08679597 -0.05606648 -0.14383085 -0.1336243 -0.1655392 -0.09749637 0.07752345
-0.0025629732 0.1741063 0.08274709 0.36218712 0.0259943 0.11415365 0.009470338 0.007947765
-0.016149728 0.047938973 0.012907527 -0.011809226 -0.107239775 0.019631714 0.13175495 0.11148169
0.05211979 -0.019539945 -0.03988917 0.08756365 0.05632025 -0.011855807 -0.068845764 -0.05542168
-0.016387364 0.10950865 0.060530256 0.0983131 -0.07274952 0.14114916 -0.037348885 0.021474551
0.070755824 0.07951196 -0.0030825753 -0.16707097 0.16496968 0.0029294584 0.04631506 0.214154
0.08368501 -0.018043252 -0.1022459 0.09552818 0.09417676 0.064931795 -0.18317015 0.11774144
-0.212081 0.07714597 0.089618094 -0.0042047957 0.0450575 0.010374911 0.026734207 -0.02555582
-0.029685246 0.06969202 -0.0023087333 -0.15541741 -0.02093947 -0.020905912 -0.06484686 0.12514763

lstm.bias_ih_l0 f4 [512]
00000000: 3099 e23d cccc e1bd 1a6a 873e a701 15bd
00000010: 11a2 863d d8d5 4bbe 18bf d7bd bbe1 47bc
00000020: ec72 8fbd 7ca6 cf3d 4128 5a3e 0c1d 59be
00000030: 04ff cc3d f855 8e3c ad31 9f3d 6f0c 4c3c
00000040: 837d 21be d00b 773d 2ae1 e0bd 8d2a bb3d
00000050: c2ba 943d 912f b43e fba9 05be 4e79 38bd
00000060: dda4 8abe 6400 b2bd 9984 bdbe dcd8 423d
00000070: f82e 8fbd 0c01 2d3e b04f 38b8 0d93 ab3d
00000080: b0f2 ea3c 5538 c53a 3a29 51be d78a 63be
00000090: 6b63 3abe dc8b 3cbb 7c95 03be 19a1 fbbb
000000a0: b74c fdbc baab 1fbe b42f 93bd 2ade b6bc
000000b0: 401a 7cbd edf1 d6be c42a 603e f4f6 433e
000000c0: e89e 103d 7277 573c 7d35 eabd 58ec d6ba
000000d0: 8f10 e23c 92a0 913d d39e a0be e991 ebbe
000000e0: 9db3 4c3e b8af d23d 20ae 3fbc 2475 90be
000000f0: b1d3 703e 787c d63d 510f cebe e09f 7bbe
00000100: 0477 233e cbbe c7bd 2b50 8ebe f960 7bbe
00000110: dcf6 673e 957d 183e e416 3e3e 0733 e8bd
00000120: e5f3 55be 1367 923b c439 1fbc 49aa babe
00000130: dc2a 0bbe 0794 b2bd 3ec1 34be fa89 3abe
00000140: ddcf fd3d 422a 063e 1d16 bebd a069 e33d
00000150: 6ffe 1e3e 5b7a e63d 65ad b83d 0132 53bd
00000160: 44e9 6a3d bdc4 e73b 3929 1c3e 22d9 d3bd
00000170: 3abd e93d 0d2a 063e cb97 d3bd b835 2b3e
00000180: 95f6 183e 8165 ec3d 3ea2 1abe 00b9 d43d
00000190: c0d5 72bd aaaf 383e f702 a43d 1c7a d63d
000001a0: c895 65be 402a 033d c0fe 303e 58da 94bc
000001b0: c294 fbbd 2c2e 353e a23b 4fbe edb9 ef3d
000001c0: 5688 4b3e b6e7 403e 2e79 2cbe 3ab6 23bf
000001d0: bc90 853c 496a f13d 2d2d 22bf 62ce 0a3d
000001e0: 2b98 b03d 5825 17be 9a34 b63e 8df4 bfbe
000001f0: 7775 243d 11c9 3ebe 0c71 f9bd 7183 20be
00000200: 1278 03bd a958 ac3a 045d 593d 6c76 003d
00000210: b762 2d3e 9c91 0e3d 6be3 59be 0670 65bd
00000220: d066 23bd bc29 f0bd 8bbb 58bd ca8a 62be
00000230: 3e43 9dbd 09c8 b5bd 5dae 67bd 646a 75bd
00000240: cc5b 5dbe 1b6e 8fbc ca5a 063e 876a 7dbd
00000250: 6f25 24bb e812 253e 6398 b13e 8a43 5cbc
00000260: c4df 0dbd a6ab 543e b373 4cbe 9eaa 9ebd
00000270: d3bd 87be 1c8e ddbc 04b9 b23d b297 eaba
00000280: 88a4 22be 5361 9abd 9314 cbbc 260f fcbd
00000290: 1193 80be e20e e0bc c3c5 903d ff18 62be
000002a0: 8548 85be a387 a0be eb52 393d 058e 78be
000002b0: b97a 65bd 9484 d7be 3c1c 103e 2e53 98bc
000002c0: ab2b cebd 1f96 483d 6163 30bd b4db 16be
000002d0: 4dbd 08be 4738 24bd 5504 19bd d44e 81be
000002e0: 4596 11be 13b3 d33d a8f4 dcbd 3c0c acbd
000002f0: 9b7c 3c3d 6406 cebd a260 12bf 8c93 b3be
00000300: ad90 01be 3cec ae3d f850 85be e877 74bd
00000310: 7b31 05be 6e13 8f3d 0a1d 293e b194 37be
00000320: 505a 3cbe b7a3 00be 5ff8 853d 5fb8 ecbe
00000330: 4cfe 1c3c 1e21 78bd 44fe f73d 031b 52be
00000340: 058f c7bd ad97 293d 68a6 01bf 1bfe 14bd
00000350: 5aa6 bd3c 1e69 913d a9fb 47bd 05cb 993d
00000360: f4fa 06be 99b4 b2bd 52a6 213d e334 ab3b
00000370: 9d0c 17bd 490b 21bd c49d d5bd cbb2 2b3d
00000380: deea d83c b8cb 4d3c 274a a93c ad7b 2f3e
00000390: 2ccf 85bd d456 a23d 3024 12bc 778a 6e3d
000003a0: b6b8 8dbe 33f6 c6bc 160c 973e ae8f a9bd
000003b0: c57a 49be 41b4 973c 436d 6abe af71 b43d
000003c0: 3c2e 63bc 327f 363d 3137 2bbd c393 d7be
000003d0: 395d bd3d 299f ae3a 1cd0 19bf bbe5 f43d
000003e0: 92ed 033d 28d6 35bd 488c 233e 40a4 c4be
000003f0: e761 edbd d693 ac3c 39f7 83be 7316 4fbe
0.110643744 -0.1102539 0.26448137 -0.03637853 0.065738805 -0.19905794 -0.10534495 -0.012199814
-0.070043415 0.10139176 0.21304418 -0.21202487 0.10009578 0.017374977 0.07773147 0.012454136
-0.15770535 0.060314 -0.10980447 0.09138975 0.07262184 0.3519254 -0.13053124 -0.04503756
-0.27078906 -0.08691481 -0.37015226 0.047570094 -0.069913805 0.1689493 -4.3943233e-05 0.08377657
0.028680176 0.0015046695 -0.20425883 -0.22220932 -0.18201987 -0.0028769886 -0.12849993 -0.0076791164
-0.03092037 -0.15592852 -0.07186833 -0.022322733 -0.06154847 -0.4198145 0.21891314 0.19137174
0.035307795 0.013151037 -0.11435983 -0.001639734 0.027595786 0.071107045 -0.31371173 -0.46009758
0.19990392 0.10287422 -0.0116992295 -0.2821437 0.23518254 0.10472959 -0.4024606 -0.24572706
0.1596337 -0.09753188 -0.27795538 -0.24548711 0.22652763 0.14891656 0.1856342 -0.11337858
-0.2089382 0.004467854 -0.009718362 -0.36458042 -0.13590568 -0.0871964 -0.17651841 -0.18216696
0.123931624 0.13102058 -0.092815615 0.11104131 0.15526746 0.11253806 0.090174474 -0.05156136
0.057351366 0.0070730136 0.152501 -0.10344149 0.11413045 0.13101979 -0.103316866 0.16719711
0.14937814 0.11542798 -0.15100953 0.103868484 -0.05928588 0.1803576 0.08008378 0.10472509
-0.22420418 0.032022715 0.1728468 -0.01817052 -0.12284233 0.17693394 -0.20237592 0.117053844
0.19876227 0.1883839 -0.16843101 -0.6394993 0.016304366 0.117878504 -0.6335018 0.03388823
0.08622774 -0.1476034 0.35587007 -0.37491265 0.040151086 -0.18631388 -0.12179765 -0.15675141
-0.03209693 0.0013148981 0.053067222 0.031362936 0.16932188 0.034806833 -0.2127816 -0.056015037
-0.03989297 -0.1172671 -0.05291323 -0.22123256 -0.07678841 -0.08876044 -0.05656277 -0.059915915
-0.21617049 -0.017508557 0.13120571 -0.06186917 -0.0025046726 0.16120493 0.34686574 -0.013443837
-0.034637228 0.20768604 -0.19966011 -0.077473864 -0.26512012 -0.027045302 0.08726695 -0.0017897992
-0.15883076 -0.07538094 -0.024790084 -0.12307577 -0.25112203 -0.027350847 0.0706897 -0.22079848
-0.2603189 -0.31353483 0.045245092 -0.24272926 -0.05602524 -0.42093337 0.1407327 -0.01859435
-0.10066923 0.04897129 -0.043063525 -0.14732248 -0.13353463 -0.040092733 -0.037357647 -0.25255454
-0.1421748 0.1033689 -0.10788852 -0.08400771 0.04601727 -0.10059813 -0.571787 -0.35073507
-0.12652846 0.08541152 -0.26038337 -0.059684664 -0.13007157 0.06986128 0.16514984 -0.17927815
-0.18393826 -0.12562452 0.06541514 -0.46234414 0.0095821135 -0.060578458 0.12109044 -0.20518117
-0.09744076 0.041404415 -0.5064454 -0.036375146 0.023150612 0.07100128 -0.048823986 0.07509426
-0.13181669 -0.087258525 0.039465256 0.0052248104 -0.036877263 -0.039317403 -0.10430482 0.041918557
0.02647918 0.012560777 0.020665241 0.17137022 -0.065336555 0.079267174 -0.008919761 0.05823752
-0.27679986 -0.024287319 0.29501408 -0.08279358 -0.19675739 0.018518569 -0.22893243 0.08810746
-0.013866004 0.044554897 -0.04180068 -0.4210492 0.092462964 0.001332258 -0.60083175 0.1195788
0.032208987 -0.04439369 0.15971482 -0.38406563 -0.11590939 0.021066587 -0.25774553 -0.20223407

lstm.bias_hh_l0 f4 [512]
00000000: e077 803e d533 5cbe 2d93 bd3e c8ef 08bc
00000010: d5e2 4b3d 5699 e6bd 741b cdbd 6687 17be
00000020: 7b73 b4bd a21e 063e b06e 7c3d 1b3e 60be
00000030: 5fa7 733e c15f 063d 60df 22bd 54cb cb3c
00000040: 4ad1 88bd ec47 503c 7a38 273d 5408 113e
00000050: 719a 5c3c 59f4 a13e d8f2 09be 0bc5 c13b
00000060: 70fe 99be 6b8a a9bd 931f bdbe 0faf b93c
00000070: 36e4 57be 2a88 463e 7a07 283d c8fa bd3c
00000080: 39c3 3d3d 3387 d23c 3870 6bbe 805d 4bbe
00000090: 2705 1dbe 582d b13d fbe6 2ebe 1f4a 0b3e
000000a0: 4386 6b3d 4b47 d7bd 1689 40be 19df 5f3d
000000b0: d2dd 3abd 57b9 c6be 2deb 213e 6df5 cd3d
000000c0: a93b f6bb 4858 9a3a 1d3c 9bbc f733 afbc
000000d0: c967 0fbc 025b 9c3d 808f a3be e5f2 11bf
000000e0: 07ae 993d 91db b93d ddf9 c33d 0c9c 92be
000000f0: a95b 293e b8ed fc3d 73dc 00bf 5e4f 96be
00000100: 6df9 183e 93f2 00bd 2151 98be d529 41be
00000110: 4381 6c3e eae8 d53d 5c2c 813e 6a5a 45be
00000120: 81d8 5cbe 48de 643d a70b cd3a a67a c5be
00000130: cf3e 33be dcfb 00be 83ba 9abe f7e7 31be
00000140: 4753 903d 4197 163d 49f6 acbd 10ba 933d
00000150: 6651 4b3d bcff 3e3e c6b7 873d a467 66bd
00000160: 9142 77bd 05c0 0bbe d45b 2f3e 9cea e23c
00000170: 1aad 243e 9c91 2f3e d529 04be e647 e33d
00000180: d2b1 333e cad8 273e 9dd4 ddbd 8867 983d
00000190: 84ef 973d 4c8b 8d3e 81cf 8c3d 7793 583e
000001a0: b8c2 59be 87c6 9c3d dd99 533e 00c8 003d
000001b0: 30e8 37bb fa80 133e ae7a 94be d894 4b3e
000001c0: 5350 5b3e 9ddd 073e 7288 73be f120 0dbf
000001d0: a494 5fbd a214 913d 81ce 2abf 0590 83bc
000001e0: 3ad0 bbbb ee99 16be 39cf 5f3e 4b20 78be
000001f0: 05aa c4bc c807 4fbe 1402 56be f9a8 32be
00000200: 1f0e b4bb a9b3 e73c df29 543d ebe3 e13d
00000210: e36b ca3d 8800 5ebd e5bd 43be be46 ddbd
00000220: 1ca5 583b da7a 43bd bf58 e8bd d641 71be
00000230: d8d9 85bd cf65 64bd 4ae6 0e3b ac9d d1bd
00000240: b1ec 7dbe 2239 53ba 5c2c 233e 29b1 8ebd
00000250: 99a6 2dbe 81ef 723e 2984 b83e 7e20 83bd
00000260: 2f7a 87bd 1f72 6a3e 100b a3be eba3 bebd
00000270: fd40 d9bd 81b2 9b3d 542d 85bd b9cc 40bd
00000280: 070b 88bd 6f67 8bbd c476 97bd 5c9a 80be
00000290: df66 adbe e3c0 d13c bd8a 533d fb13 ebbd
000002a0: 3509 11be 9530 8ebe 05b4 683c 518f 9dbe
000002b0: e1fb 73bd 2b23 02bf c31d ee3d d271 e53c
000002c0: e66e 773d adc7 d53c f57e 5abd 8398 3ebe
000002d0: c03f c03c c7e7 f73d e739 d0bd 0eed 89be
000002e0: 891c 15be 63af 3f3d f9a6 edbd c053 fcbd
000002f0: 2f46 783d e89d e1bd 7975 04bf 9ba2 afbe
00000300: deff f3bd f054 8b3d d398 8abe 5af1 a5bd
00000310: 6057 dc3c d55f b8bd 5570 4a3c 88ac 28be
00000320: cc56 52be b547 5cbe d81e 443d 4ec7 13bf
00000330: e2c7 543c eb58 33be e8fe 3b3d f77f 52be
00000340: 6936 42bc 54c4 b93d 7dd0 adbe ec74 be3c
00000350: 4087 8a3c c55c 363d 0a4a df3c 9275 dc3c
00000360: 9aa1 3abe 7489 a7bd 602b 973d 4eef 9d3d
00000370: 0477 d8ba 2132 36bd 38a3 17be 0bcb 38bd
00000380: 1b3e 03bc 1bbc 393d 324e eb3d ed22 393c
00000390: fb03 b6bc c2f4 febc 53e3 85bd cd30 eb3d
000003a0: 504c 66be 1419 16bd 7a34 8c3e 71c6 d9bc
000003b0: f998 41be b281 033e 4744 c0bd cf41 bc3d
000003c0: afaf b93d e828 f43c cdf7 bfbd 696e 01bf
000003d0: bc2d 103d f5df d43d 64c8 1ebf c417 ba3d
000003e0: 7101 903d fcda 143c 0c80 473e df90 b4be
000003f0: 00c1 f1bd b6b9 01be ca47 bebe 08cd b6be
0.25091457 -0.21504147 0.3702635 -0.00835795 0.04977687 -0.11259715 -0.10015002 -0.14797744
-0.08811089 0.13097623 0.061628997 -0.21898691 0.23794316 0.03280616 -0.03976381 0.024877228
-0.06680544 0.01271246 0.040825345 0.14163333 0.013464556 0.31631735 -0.13471544 0.005913382
-0.30076933 -0.08278354 -0.36938152 0.022666482 -0.2108315 0.1938788 0.041022755 0.02319087
0.046328757 0.025699234 -0.22992027 -0.19859886 -0.15333997 0.08651227 -0.170803 0.13602494
0.05750109 -0.10511645 -0.18802294 0.054656122 -0.0456217 -0.38813278 0.15812369 0.10056577
-0.0075144363 0.0011775577 -0.018949563 -0.021387083 -0.008752772 0.07634546 -0.3194542 -0.5701125
0.07503896 0.09075082 0.09569142 -0.2863468 0.16538872 0.12350029 -0.5033638 -0.29357427
0.14938898 -0.031481337 -0.29749396 -0.18863614 0.23096184 0.104448155 0.25229156 -0.19272771
-0.21566965 0.055876046 0.0015643731 -0.38570136 -0.17504428 -0.12596077 -0.30220422 -0.17373644
0.07047134 0.03676534 -0.08445413 0.07213223 0.049638174 0.18652242 0.06626849 -0.056251183
-0.060366217 -0.13647468 0.17124873 0.027699761 0.16081658 0.1714539 -0.12906583 0.11097698
0.17548302 0.16391292 -0.108315684 0.07441622 0.07418731 0.27645338 0.06875516 0.21150003
-0.21265686 0.076550536 0.20664163 0.031440735 -0.0028061979 0.1440467 -0.28999847 0.19880998
0.2141736 0.13268133 -0.23782519 -0.5512839 -0.054585114 0.070840135 -0.6672135 -0.016059885
-0.0057316096 -0.14707157 0.21856393 -0.24231069 -0.024006853 -0.20217812 -0.2089923 -0.1744727
-0.0054948474 0.02828391 0.051797744 0.110298 0.09883859 -0.054199725 -0.19115408 -0.108045086
0.0033057397 -0.047724582 -0.11345052 -0.2356027 -0.06535691 -0.055761155 0.0021804743 -0.10235152
-0.24797322 -0.00080575247 0.1593489 -0.06967384 -0.16958083 0.23724176 0.3603833 -0.06402682
-0.066151015 0.22895096 -0.31844378 -0.093086086 -0.10608099 0.07602406 -0.06502786 -0.04707024
-0.06642728 -0.06806838 -0.073956996 -0.25117767 -0.33867547 0.02560467 0.051645983 -0.1147842
-0.14163668 -0.2777144 0.014203076 -0.30773404 -0.059566382 -0.5083491 0.1162677 0.028008375
0.060408495 0.02609619 -0.053343732 -0.18612866 0.023467898 0.12104755 -0.10167294 -0.2693867
-0.14561667 0.04679812 -0.11604113 -0.123206615 0.060613807 -0.11016446 -0.5174175 -0.34303746
-0.11914037 0.0680331 -0.2706972 -0.08102675 0.026897132 -0.090026535 0.012355884 -0.16472065
-0.20540923 -0.21511729 0.047880977 -0.5772599 0.012987109 -0.17514388 0.045897394 -0.20556627
-0.011853793 0.0907065 -0.33948126 0.023249112 0.016910195 0.044522066 0.027256984 0.02691153
-0.18225709 -0.08180514 0.0738132 0.07711659 -0.0016514962 -0.0444814 -0.14808357 -0.045115512
-0.008010413 0.045345407 0.11489524 0.011299831 -0.022218695 -0.031122569 -0.06537499 0.114839174
-0.22490048 -0.03664501 0.27383786 -0.026583882 -0.1890601 0.12842444 -0.09388023 0.091922395
0.09066712 0.029804662 -0.09373436 -0.505591 0.035199866 0.10394279 -0.6202452 0.09086564
0.07031525 0.009085413 0.1948244 -0.35266778 -0.1180439 -0.126685 -0.37164146 -0.357033

linear.weight f4 [6, 128]
00000000: eb4f 28be efdd 16be 98be 613e b6ba 33be
00000010: fd60 4e3e 12f8 a2bd ecdf 493e 5164 e13d
00000020: 28fa 37be d599 273e 31c2 84be c5ea 1bbe
00000030: 6703 513d f970 27bc 92a4 88be 3392 81be
00000040: 333f 55be 5d4f b4bd e0eb 8f3e 9dae 6e3e
00000050: 6dfd 8c3e 5f5b b1be 7897 8abe 6e0b 1fbe
00000060: 22a9 17be 6780 e93d 4541 5b3e d7de 7b3d
00000070: 40d9 19be 927f 92be 9fb2 a4be 0d76 6fbd
00000080: 5d8f 67be ae1d 78be 30ed d43c f4fa 5c3e
00000090: e86c 5fbe 4a26 75be e783 8fbe 8270 08be
000000a0: 24cd 6c3e 2b48 a9be 8388 8abe 5bd8 76be
000000b0: 49a3 34be 1b19 8a3e 8a42 293e 7179 81be
000000c0: 2def 96bd a14f cabd 2fb4 a6be cb00 e9be
000000d0: 57f9 f73d 7330 ae3e 55c6 423d 46e7 2b3e
000000e0: cd52 80be b028 563e 905a 32be 025a c83a
000000f0: f33d b4be 5b8d 08be 4c93 5abe 5d3f 603d
00000100: 4655 f0bd e4b1 3a3e ca19 683e 4e46 e93c
00000110: d44d a7bb 1225 9d3e 76f2 c03e c318 31be
00000120: 17be d6bd 2e10 ee3d 6eaa 833e df88 ad3c
00000130: 30a2 a4be 1ee1 403e 83c1 973e a6a7 533e
00000140: 7023 2f3e 5dee 8c3e 6a17 d93c 8487 423e
00000150: f464 b83e 5134 b0be ad66 403d 73a5 a9be
00000160: 877b 0ebe 9eb4 72bd 6f7d ab3e 2125 343e
00000170: 569e 513e 7291 763d c3f5 6ebd 1e77 8e3e
00000180: 3e3e b4bd 87ac 973e ca94 993e af53 5bbe
00000190: 9977 a03c f711 89be 3e12 7b3e 4e65 723e
000001a0: 0ecd 243e 30ee a63e f00c 733d a0d0 8f3e
000001b0: f70f 813e 64eb 73be 7fe8 9a3d 833c 653e
000001c0: 1b96 a3be b931 5d3e 4de4 233e 1572 753d
000001d0: 672a 40be 3d42 ad3e 099c f13d cd22 52be
000001e0: 278f 51be bc44 4fbd 3a1a 41be 8cd7 483d
000001f0: 46c4 debc 96b4 ce3d 7f7e 3dbd b469 5cbd
00000200: de1c 5d3e f7aa 943e f5cf 92be e13e 9cbe
00000210: fd3e 27be 75db 99be 6a14 5abe b419 26be
00000220: 4725 80be 9e76 7abe b54d e23c 12e5 1dbe
00000230: 6b3e 9bbe cc6a 8fbe b74c 85bc 956c 453d
00000240: 856d 71bd 63c9 913e 69f3 62be 0c5f 563e
00000250: 947a 1e3d b20f 5abe 88ca 90be 1883 593e
00000260: f3ac 043e 5211 a83e 8b9d 51be 0e68 52be
00000270: 5749 8ebd 6feb 39bd 623b cfbd 6348 9dbe
00000280: dedc dcbd 1736 13be 8a7c b13e a89b 053d
00000290: 5ae6 b4bd 4367 dcbd 5aba e03b b5c6 8fbe
000002a0: ba46 3fbc 4542 ecbc b857 b2bd 4bdf 863c
000002b0: ad1a 74be 1314 ca3c 54c5 88be 63c9 d33b
000002c0: d147 a23e dde1 843e 3c45 9d3c 7d55 f0bd
000002d0: 7930 3abe 978a c2bc 0af8 88be b568 f0bd
000002e0: 0c08 a33d b4c1 933e 09f4 8c3e 57e8 573e
000002f0: cb1e c4bd d373 5e3e 0048 20bd df65 64be
00000300: d629 aa3e 5bc6 95be ff9b 02bd 63a8 7abe
00000310: 631f aabe 4842 103e eb90 c03d d075 a7bd
00000320: 5835 373e b3b3 5b3e b1ca 4d3d 4640 473e
00000330: d5f0 01be 2553 803d 9c53 1f3e 856a dabd
00000340: 8173 d83d d1d1 293e 97b7 3b3e 807f 71be
00000350: 7b41 bb3d 573d 0f3c 7f3a 883e 2f11 263d
00000360: cd67 84be ace3 75be 3949 0f3e 6e4c 13be
00000370: 8f1f 94be e514 98be 3b6a 32be 0527 093e
00000380: 0c2a 873e 1966 61be aac8 763d d446 963e
00000390: a59b 8bbe 9f7e 3bbe d091 89be 827b 61be
000003a0: 40c1 3a3e 8f86 0c3d 2e42 a6be 3632 d3bc
000003b0: c0af 52bd 8103 a93d dd87 5d3e ce81 183e
000003c0: 17cd 68bd f354 72be 357a 92be eb5a 04bc
000003d0: c35e 993e 811b df3c f0a1 6c3d c96f eebd
000003e0: 6b80 403e 1a29 933e bd7b be3e 83b2 603e
000003f0: 5ac4 943e bec6 75be 7ee1 5dbe d315 44be
-0.16436736 -0.14733098 0.22045362 -0.17551693 0.20154186 -0.07957472 0.19714326 0.11005462
-0.17966521 0.16367276 -0.25929406 -0.15226276 0.051028635 -0.010219806 -0.26688057 -0.25306854
-0.2082489 -0.088042 0.28109646 0.23308797 0.275371 -0.34640023 -0.27068686 -0.15531704
-0.14810613 0.11401444 0.21411617 0.061491814 -0.1502428 -0.28612953 -0.32167527 -0.05846219
-0.22613283 -0.24230072 0.025992006 0.21580106 -0.21818888 -0.23940387 -0.2803032 -0.13324168
0.2312513 -0.33062872 -0.27057275 -0.2410597 -0.17640413 0.2697228 0.16529289 -0.25287965
-0.07369838 -0.09878469 -0.32559344 -0.45508417 0.12108105 0.3402134 0.047552425 0.16787443
-0.25063172 0.20913959 -0.1741736 0.0015285613 -0.35203514 -0.13335173 -0.21345252 0.054747928
-0.117350146 0.18231922 0.22666088 0.028475907 -0.0051057134 0.30692345 0.37684983 -0.17294602
-0.104854755 0.1162418 0.25715965 0.02118343 -0.3215499 0.18835875 0.29639825 0.20669422
0.17103362 0.27525607 0.026500423 0.18997008 0.3601452 -0.34414914 0.04697292 -0.3313404
-0.1391431 -0.05925428 0.33494136 0.17592289 0.20470557 0.0601973 -0.058339845 0.27825254
-0.08800934 0.29623815 0.2999633 -0.21418642 0.019588279 -0.2677152 0.24518678 0.23671457
0.16093847 0.32603598 0.05933851 0.28088856 0.25207493 -0.23820263 0.07563876 0.22386365
-0.3195046 0.21600999 0.16005059 0.05992325 -0.18766175 0.33839598 0.117973395 -0.20521088
-0.20464765 -0.05060266 -0.18857661 0.049033687 -0.0271932 0.10093038 -0.046263214 -0.053811744
0.21593043 0.29036686 -0.28674284 -0.30516723 -0.16332622 -0.30050245 -0.2129685 -0.16220742
-0.2502844 -0.24459311 0.027624944 -0.15419415 -0.3032106 -0.28011167 -0.016271932 0.048199255
-0.058942337 0.28473958 -0.22163166 0.20934695 0.03869112 -0.2129505 -0.2827952 0.21241415
0.129566 0.32825714 -0.20470254 -0.20547506 -0.06947582 -0.045390543 -0.10118748 -0.3071929
-0.107843146 -0.14376102 0.34665328 0.03261915 -0.088329986 -0.10761883 0.0068581523 -0.2808129
-0.011674577 -0.028840194 -0.08708137 0.016463896 -0.23838301 0.024667775 -0.2671305 0.006463216
0.31695417 0.2595357 0.019198053 -0.117350556 -0.18182553 -0.023747725 -0.2675174 -0.11738721
0.07960519 0.2885872 0.27529934 0.21084724 -0.09576186 0.21723871 -0.039131165 -0.22304486
0.33235043 -0.29252896 -0.03188705 -0.24478297 -0.3322707 0.14087784 0.09402641 -0.08176768
0.17891443 0.21455269 0.05024213 0.19458112 -0.12689526 0.062658586 0.15559238 -0.10664848
0.105689056 0.16583945 0.18331753 -0.23583794 0.09143349 0.008742652 0.2660713 0.04054373
-0.25860444 -0.24012631 0.13992776 -0.14384624 -0.28930327 -0.2970344 -0.17423336 0.13393791
0.26399267 -0.22011603 0.060249962 0.29350913 -0.27267185 -0.18310021 -0.2686906 -0.2201977
0.18237782 0.034308013 -0.32472366 -0.025780778 -0.05143714 0.082526214 0.21633859 0.14893267
-0.056836214 -0.23665218 -0.28608862 -0.008078317 0.2995511 0.027234795 0.057771623 -0.11642415
0.18798988 0.28742296 0.3720378 0.21943097 0.29056054 -0.24001595 -0.2166805 -0.1914895

linear.bias f4 [6]
00000000: e95c c1bd 26a8 923c 547e c5bd 456e 003c
00000010: c4c3 9ebd 8f2b d6ba
-0.09441549 0.017902445 -0.09643236 0.00783879 -0.07752183 -0.0016339886
