Pretrained/5-1-128-1.pt (torch, 273223 bytes, 6 tensors)

lstm.weight_ih_l0 f4 [512, 2]
000000 b4 83 0e 3e da bb 77 3b 4b 8e af bc b0 47 4e 3d
       0.13917428 0.0037801177 -0.021430155 0.050361335
000010 92 66 c7 3d a6 b5 5c bd 65 d7 ad bd fb 22 bb 3d
       0.097363606 -0.05388417 -0.08488349 0.09137531
000020 47 36 ec 3b fd 42 89 3d 6a a6 24 3d a6 10 19 bd
       0.007208619 0.0670223 0.040197767 -0.037369393
000030 3d 70 63 3d a9 98 83 3a e6 76 3e 3c 58 13 d5 bc
       0.05552696 0.0010040003 0.011625027 -0.0260102
000040 30 21 c0 bb 09 b2 c3 bd 4a f3 11 bd 66 42 cc 3d
       -0.0058633313 -0.09555442 -0.03563241 0.09973602
000050 87 1e 8e bd ba e2 e0 3d 07 4a 1d bd ac cf b0 bd
       -0.069394164 0.10980745 -0.038400676 -0.0863336
000060 af cb 40 3e 15 c8 4c 3d 5b 7f b3 3d d5 a3 c5 bd
       0.18827699 0.0499955 0.087645255 -0.09650389
000070 e0 98 d8 3d 98 37 86 bd 6e e2 7d bc fb 31 02 be
       0.105760336 -0.065535724 -0.01549588 -0.12714379
000080 2f 4a aa bd 64 95 e8 bd fb 11 c9 3c 73 2f 1b 3d
       -0.08314931 -0.11356619 0.024544707 0.037887048
000090 f8 7a 18 3d 6e 15 d0 bd 9f e9 7c 3c 79 e2 1a 3e
       0.037226647 -0.101603374 0.015436559 0.15125455
0000a0 23 19 35 bc ea fd 6a 3d 41 a1 f7 bb 2e d8 d3 3b
       -0.011053356 0.057371058 -0.0075570648 0.0064649796
0000b0 6f 43 03 bd 74 21 6d 3d 98 18 3e bd ec e0 2f 3d
       -0.03204673 0.05789323 -0.046410173 0.04293911
0000c0 d2 dc b2 3d 96 b4 ba 3b 88 5c b3 bd 4b b2 87 3d
       0.087335244 0.005697797 -0.08757883 0.066258036
0000d0 e1 7d 21 3e b0 a6 a7 bd 47 1a 9c bc b1 58 b0 bc
       0.15770675 -0.0818609 -0.019055499 -0.021526666
0000e0 cf 67 d3 3c b4 11 8c 3c d3 bf c1 3d dd 33 69 bd
       0.025806336 0.017098285 0.09460416 -0.056934226
0000f0 09 d9 a3 3d df bd 06 3e 25 68 a3 bd e8 1b 30 bd
       0.080003805 0.13158368 -0.07978848 -0.042995363
000100 99 24 75 bd e7 a9 b8 bd 47 a4 68 bc c8 0c 10 3c
       -0.059849355 -0.09016781 -0.014199323 0.00879211
000110 12 7b ea 3b 0a 7c 0a bb e6 db 72 3d 64 9f 97 3d
       0.0071557844 -0.0021131062 0.059291743 0.07403448
000120 14 ec 94 3d 19 8a 18 bd 06 cf 35 3d 0e 73 66 bd
       0.07271591 -0.037241075 0.044386886 -0.05626207
000130 63 a2 4d bd 8c b8 87 bd 93 81 25 3e 18 f7 b7 bb
       -0.050203692 -0.066269964 0.1616271 -0.0056141727
000140 ac ee 89 3b 51 fb 04 be b2 1c 81 bb f6 ab 87 bb
       0.00420936 -0.12986495 -0.0039401883 -0.0041403724
000150 ec d6 29 3a 34 ab 32 bd 71 94 41 bb cf 8a 09 be
       0.0006478864 -0.043620303 -0.002953794 -0.13431858
000160 ea 03 be 3c 60 23 b1 3d 59 15 fe 3d 10 b4 15 be
       0.023195226 0.08649325 0.124064155 -0.1461947
000170 46 20 c5 3d 2e 88 93 3d d7 93 df 3d fc ef 8a bc
       0.09625296 0.072037086 0.1091687 -0.016960137
000180 70 77 1b 3d f4 48 9d bd 8a 51 5d bd c7 35 0b 3e
       0.0379557 -0.0767993 -0.05403284 0.13594733
000190 09 34 f3 bd d1 1b 1b 3e 6d 39 5d ba 2c 59 2d 3d
       -0.11875159 0.1514733 -0.0008439038 0.04232137
0001a0 8c 3b 46 bc 99 01 81 bd ff 24 43 bd c9 26 43 3d
       -0.012099158 -0.06299133 -0.047642704 0.04764441
0001b0 f5 1b 19 bc 41 6d 6d 3c b0 59 4b 3d d1 c1 7b bd
       -0.009345044 0.01449138 0.04964608 -0.061464135
0001c0 15 06 e2 3d cb 14 8f bb be c9 9c 3c 2e 59 a9 3d
       0.11036316 -0.0043664924 0.019139167 0.08268963
0001d0 0d 17 30 3e 83 ab c8 3c 2a 54 9f bd 1a 1f 3c 3d
       0.17196293 0.024495846 -0.07779725 0.0459281
0001e0 5c c3 aa bd 6b dd d2 bd 04 93 fe bb 8f ec 81 bd
       -0.08338043 -0.102961384 -0.0077689905 -0.06343948
0001f0 37 99 a1 bc 8c 9f ef bd cb ce 30 3d 84 e3 56 3e
       -0.019726379 -0.11700353 0.043165963 0.20985228
000200 24 8e 4f bd c0 47 b9 bd 93 8b 4c 3e 64 6d 2a be
       -0.050672665 -0.09046888 0.19975118 -0.16643292
000210 c4 01 e4 bc 8b 7c 08 bd 11 33 ad bd db fb 2d bc
       -0.027832873 -0.0333219 -0.08457006 -0.010619129
000220 e2 e6 0c be 36 63 1c bc ae 49 c4 bd b5 1d 5d bd
       -0.1375995 -0.009545138 -0.09584366 -0.05398341
000230 eb 48 aa bc 56 12 23 3e a2 8b 0f bd b6 9a 20 3e
       -0.020786723 0.15924963 -0.035045274 0.15684018
000240 6e 16 fb bc 52 75 0e bd 78 ca f1 3d 21 be 59 bd
       -0.030650344 -0.034779854 0.11806196 -0.053159837
000250 dd 02 2a 3c c8 3f de 3c ff ea 8b bc 35 e9 00 bd
       0.010376659 0.027130023 -0.017079828 -0.031472404
000260 fa ce 84 3d b8 72 d6 bd 5d 4e 0c be aa ad 70 bd
       0.0648479 -0.104710996 -0.13701768 -0.05875937
000270 5a 5b 15 3e 72 9c a2 bd cc e7 c2 39 3a 81 a7 bd
       0.14585629 -0.07939996 0.00037175266 -0.08178945
000280 64 de 69 bc f1 14 24 bd a7 ed 0c bc a7 e5 42 bc
       -0.014274213 -0.040059034 -0.008601583 -0.011895574
000290 f0 78 4a 3c f4 dd 9b 3d d0 f4 f8 b6 4c 81 a5 bd
       0.012357935 0.076106936 -7.419476e-06 -0.08081302
0002a0 5a ac 0a 3a bd 0f ff 3d ac 4a f4 3b e7 09 e8 3d
       0.00052899646 0.12454174 0.0074551906 0.11330014
0002b0 4b 75 77 3c af 5e 21 be 19 56 a8 3c ab f5 ff 3d
       0.015103648 -0.15758775 0.020548867 0.12498029
0002c0 c4 42 60 bd 92 7b 39 bd 74 f0 b0 3b c8 8b 29 bd
       -0.054751173 -0.04528386 0.005399758 -0.04139307
0002d0 04 06 ea 3d 90 73 e2 bd 46 f4 51 bd ef 51 bc bd
       0.11426929 -0.11057198 -0.051258348 -0.09195315
0002e0 67 6e dd 3d 59 31 11 3d c9 f9 0a bd a8 0f 04 3e
       0.10812073 0.035447452 -0.03392962 0.12896597
0002f0 ba 88 c9 bd 16 35 0a be 93 4a 45 3c 4e 7c ba bd
       -0.09840532 -0.13496813 0.012041706 -0.091057405
000300 27 ab 90 3d 12 72 d5 bc a9 be 6e bd f6 03 93 bd
       0.07063895 -0.02605537 -0.058287296 -0.0717849
000310 93 79 10 3d 20 71 65 3c c6 5a 47 bc d9 ac 2d bc
       0.035272192 0.014004022 -0.012167638 -0.010600292
000320 3f ad a1 bd 9e 00 84 3c 6f 66 67 bd a8 0d d7 3d
       -0.07894372 0.016113576 -0.056494173 0.105006516
000330 53 73 37 3e 86 e2 8d 3d 44 f6 22 be b8 38 cb bd
       0.17915086 0.069279715 -0.15914255 -0.099229276
000340 76 77 93 bd 7f b1 10 3e 9f be 24 bd 3c 11 6f bb
       -0.0720052 0.1413021 -0.040220853 -0.0036478778
000350 ba ca 0d 3d f3 1a 2d bd 73 62 98 3c 33 df 72 bd
       0.034617163 -0.04226203 0.018601632 -0.05929489
000360 e9 ca 5b bc 28 c4 a2 bd 29 a8 e6 3b 56 34 52 be
       -0.013415077 -0.0794757 0.007039089 -0.20527777
000370 8e 5b 58 bd df 40 0a 3e 17 40 a3 bd ee ce 6f bc
       -0.05282169 0.13501309 -0.079712085 -0.014636738
000380 1b 6a f6 3d 19 b8 19 be f3 9c 86 3d 68 f6 f2 bc
       0.12031957 -0.15011634 0.065729044 -0.029658511
000390 a4 a6 86 bd 79 52 a1 bd b3 d3 e0 3c d5 28 2a 3e
       -0.06574753 -0.078770585 0.027444696 0.16617139
0003a0 5b bd 7a 3d f6 ae 1c bd d2 2f 27 3d 85 58 88 3d
       0.06121574 -0.038252793 0.04081709 0.06657509
0003b0 6f 19 c7 bd f4 0a dc 3d 4d a4 57 3d 64 10 03 be
       -0.09721648 0.10744277 0.052646924 -0.12799221
0003c0 c3 3b 1c 3d c6 f7 42 3e e1 8f bb bb 64 d2 e5 3d
       0.03814293 0.1903983 -0.005723939 0.112217695
0003d0 c6 eb ea 3c 2b d9 a4 bd 81 3b 5c 3d 1d 8e 0f be
       0.028676879 -0.08049234 0.053767685 -0.14019056
0003e0 9f 1d 0d 3e 27 8a a5 3d 6b 8f 94 3d 29 e7 c3 bd
       0.13780831 0.08082991 0.07253917 -0.09565575
0003f0 a5 01 10 bd 5f cc 64 3e ed e4 20 3e f2 3b 4b 3d
       -0.03515782 0.22343586 0.15712328 0.049617715

lstm.weight_hh_l0 f4 [512, 128]
000000 ee 1a e6 bc 0a 30 d5 3d 99 f8 f9 bd c8 1d 6c 3e
       -0.028089013 0.10409553 -0.12205619 0.23058236
000010 6c 49 c1 bd 5f ae 96 bd a0 ec 8c bd 84 b6 3a 3d
       -0.09437832 -0.073574774 -0.0688107 0.045584217
000020 6b e2 c4 3c 6e 67 4c 3e 00 2e f8 bd c9 db 28 bb
       0.024033746 0.1996133 -0.12118149 -0.0025765768
000030 9e 36 c5 3c c9 79 4c bd 13 c9 09 3e 02 25 cc bd
       0.024073895 -0.04992083 0.1345561 -0.09967996
000040 54 ea 88 be 50 95 08 be 8e 25 77 be 97 c8 c6 3d
       -0.26741278 -0.13338208 -0.2413542 0.09706228
000050 fe 14 19 bd 24 a1 0b 3e 8b f4 3f bd 04 cc a1 bd
       -0.037373535 0.13635689 -0.046864074 -0.07900241
000060 48 f6 2e be 15 96 38 bb b0 c3 f5 3d c5 c6 2d 3c
       -0.17086136 -0.0028165628 0.12000215 0.010606472
000070 57 65 53 3d 19 51 68 bd 6c dc fd 3d b1 ae 22 3b
       0.051610317 -0.056717966 0.12395558 0.0024823362
000080 67 3a 9f 3d 2d bf a8 bc c9 71 a9 3d ad 43 cb 3b
       0.07774811 -0.020598972 0.08273656 0.006203136
000090 e5 98 92 bd 6a 63 5e 3d ec 9c d5 3b f4 dc 8e 3d
       -0.071580686 0.054294027 0.0065189507 0.06975737
0000a0 29 2d d9 bd 4a 7c 00 be 3e bb 3a 3e 33 26 62 ba
       -0.10604317 -0.12547413 0.1823549 -0.0008626908
0000b0 1e cd 9d 3d 0c 6e 44 3e 31 c6 ce bd 3d 4a a2 bb
       0.077051386 0.19182605 -0.10096396 -0.0049526975
0000c0 3c a5 43 bd f8 cf e5 3d 9c c2 32 3e 87 42 32 bd
       -0.047765 0.112213075 0.1745705 -0.043520477
0000d0 4f 83 12 3d 7c ed 81 bc 5b fe 95 3d 37 4b 7e 3c
       0.035769757 -0.015860312 0.07323905 0.015520862
0000e0 27 53 02 3d a0 e3 11 bc ba 1f 5b 3e 4e d9 ad bd
       0.03181758 -0.008904368 0.21398821 -0.08488713
0000f0 02 c3 ed 39 30 bc 42 3d 90 c1 ce 3d f6 c0 2a 3d
       0.00045349455 0.04754275 0.10095513 0.04168793
000100 92 26 b3 3d 42 fc 13 3e 75 bf 35 bc b4 70 f2 bd
       0.08747591 0.14451697 -0.01109301 -0.11837903
000110 d6 0b 62 be 71 38 a7 bd c9 67 4b bd 49 b4 e3 3c
       -0.22074828 -0.08165062 -0.049659524 0.027795928
000120 cb 3d 0a 3c 54 cc a7 bd 6c 59 a7 bc 81 47 a8 3c
       0.008437584 -0.08193269 -0.020428382 0.020541908
000130 c3 81 4d 3b b7 3f 90 bd 4f e5 07 be 5f 22 48 bd
       0.0031357862 -0.07043403 -0.13271068 -0.048860904
000140 6f a0 cb 3d ea 08 c5 3c 44 0f 59 3d 62 db 02 bd
       0.0994271 0.024052102 0.052993074 -0.0319475
000150 fb f8 15 3e 9d 54 2c 3e d8 b6 37 be 5c f1 81 bd
       0.1464576 0.16829152 -0.17940843 -0.06344864
000160 e9 18 33 3e 44 12 4c 3b 4c 0c 05 be 47 8f 3a 3d
       0.17489971 0.0031138817 -0.12992972 0.045546796
000170 37 5d 89 3c 85 21 a6 3d 33 63 05 3e ca 33 59 3d
       0.016768081 0.08111862 0.13026123 0.053027906
000180 68 1d be bd 5f 13 68 3d e8 d7 88 bd 7d 1c 95 bc
       -0.092829525 0.0566591 -0.06681806 -0.01820206
000190 29 e6 da 3d ae 24 af 3d c4 90 18 be 27 93 02 be
       0.10688431 0.08551918 -0.14898974 -0.12751447
0001a0 0b bd 92 3c 5d 38 b7 bd 67 32 0e be ea fc 59 bd
       0.017912408 -0.08946297 -0.13886414 -0.053219713
0001b0 ab e5 bd bd ad 53 f7 bd b9 5f 1c 3d 1b 82 e7 3c
       -0.09272321 -0.12076507 0.038177226 0.028260281
0001c0 f8 ab 64 be c3 b8 2b bc 29 f1 19 3e b9 98 da 3d
       -0.22331226 -0.010481062 0.15033402 0.10673661
0001d0 e1 f9 ac 3d 4d b0 c7 bd 4d 67 1c be 3d bf 03 be
       0.08446098 -0.097504236 -0.15273781 -0.1286592
0001e0 fb a9 0e bd 22 04 93 3d 6c e7 11 bd fe a9 b4 3d
       -0.034830075 0.07178523 -0.03562109 0.08821486
0001f0 54 92 aa bc 3d 1c c0 bb df 10 5f be f9 a2 0d bd
       -0.020821728 -0.0058627413 -0.2178378 -0.03457925
000200 d7 68 59 3e d5 a3 83 3d cc ab 28 be 81 bb 26 be
       0.212314 0.06427733 -0.16471785 -0.16282465
000210 95 41 47 3d f8 e9 3a bd 73 c1 c1 3e 47 e1 89 bd
       0.04864653 -0.045633286 0.37842903 -0.06732421
000220 fd 3d b6 3d 57 00 a7 bd af 2e 10 bd ae c7 06 be
       0.08898542 -0.08154362 -0.03520077 -0.1316211
000230 f8 91 1c be e3 64 08 3e 61 d6 54 bd 40 67 17 3c
       -0.15290058 0.13319735 -0.05196226 0.009240925
000240 a8 42 d9 3d 54 41 ee 3d cd 81 a0 3e ae f4 23 be
       0.10608417 0.11633554 0.3134903 -0.16011307
000250 23 f5 89 bc 7f cc c7 bd a5 9a 33 3e ea d2 b6 3d
       -0.016840523 -0.097558014 0.17539461 0.089269474
000260 c5 d3 a1 3d 7f 48 d6 3e ad 36 2a be b1 17 08 bd
       0.0790172 0.41852185 -0.1662242 -0.03322572
000270 d6 80 45 3d 8c d9 03 be cd 9e fe 3d 8d d3 48 be
       0.04821857 -0.12875956 0.124326326 -0.1961195
000280 ce 6e 7f be af f6 a4 bc c0 ed 5c be c7 9b db bc
       -0.24944612 -0.02013716 -0.2157507 -0.026807679
000290 c9 42 33 3e ba cc cc 3d 9a 79 f1 3d 47 8b a7 bd
       0.17505945 0.09999986 0.11790772 -0.08180862
0002a0 1e 8d 25 be cb 20 99 3d 5f 62 c8 be d7 b1 0f 3e
       -0.16167113 0.07476958 -0.3913755 0.14032684
0002b0 e0 09 56 b9 cb 31 8e be 07 26 22 3e 88 a7 15 3e
       -0.00020412309 -0.27772364 0.15834819 0.1461469
0002c0 88 c3 04 be 32 59 89 bd 38 43 e0 bd f0 b2 a4 3d
       -0.12965214 -0.06706466 -0.10950321 0.08041942
0002d0 c3 2d 44 bd 01 ac 06 be 87 08 0f bd 83 f0 e1 bc
       -0.047895204 -0.13151552 -0.03492024 -0.027580505
0002e0 be fc 80 bd 38 c3 c6 bb 9b 93 ab be 9f 07 b3 3d
       -0.06298207 -0.0060657524 -0.33511052 0.08741688
0002f0 a2 ad 7b 3d 1d d1 61 be 4c 27 c5 bc 95 7c 6a bd
       0.061444886 -0.22052427 -0.02406659 -0.057247717
000300 bc b7 ef 3d a7 b6 85 be b2 5b e1 3d ec 00 bd 3d
       0.117049664 -0.26115915 0.110038176 0.092286915
000310 ea 4d 0d 3e ad 90 94 3d 7b b6 0e 3e 8e ed eb bc
       0.13799253 0.07254157 0.13936798 -0.028799798
000320 0b 25 ac bd e0 fc 04 bd 41 be 8c bd 1c 19 05 3c
       -0.08405503 -0.032467723 -0.068722256 0.008123662
000330 fd 0f 8b 3d cd 0c 2e 3e 00 7c 26 bd d8 9d ed 3c
       0.06790159 0.1699707 -0.0406456 0.02900593
000340 2f d1 88 bd f3 7d 4e bc 2e 42 81 bd ba ac 98 bd
       -0.066805236 -0.012603271 -0.06311451 -0.0745482
000350 02 b4 bb bd 1b ff c9 bd 28 64 93 3e 39 0b bd 3e
       -0.09165193 -0.09863111 0.2878735 0.36922625
000360 02 78 25 be 33 d4 72 bc ba 69 09 3e c2 85 ef bc
       -0.1615906 -0.0148211 0.13419238 -0.029238585
000370 15 85 63 bd 7d 2f a4 be 6c bf 41 be c4 37 8a 3d
       -0.05554684 -0.3206748 -0.18920678 0.06748918
000380 99 98 11 bd 23 c0 31 bd 87 ca f3 bd 03 7c 5f be
       -0.03554592 -0.043396126 -0.119038634 -0.2182465
000390 dd 19 ba bd 54 40 9b 3c c3 0f 2c 3e f9 fe 5d 3e
       -0.09086964 0.018951572 0.16802888 0.21679296
0003a0 f9 e2 be bd 5f 02 73 bd 6f 73 df 3d 0e 28 14 3e
       -0.09320635 -0.059328433 0.10910689 0.14468405
0003b0 4d cd ea 3d 6a 72 52 3e 8c f1 e1 3c 60 6b 92 bd
       0.11464939 0.20551458 0.027580999 -0.071493864
0003c0 3d 86 04 3e 3b bc 13 3c 42 6c db bd c7 1f 60 be
       0.12941833 0.009017046 -0.10714008 -0.21887122
0003d0 70 ca 90 bd b4 48 b1 bc 80 70 27 3e 09 d5 54 3e
       -0.07069862 -0.021641113 0.16351509 0.20784391
0003e0 7f 47 97 3c ef 7d 14 be 46 23 4b be b6 1a 85 be
       0.01846671 -0.14501165 -0.19837674 -0.2599694
0003f0 38 25 05 3d c9 99 99 3d b8 69 28 3e fe 56 b6 3d
       0.032506198 0.07500035 0.16446579 0.08903311

lstm.bias_ih_l0 f4 [512]
000000 2e 3e 43 bf 15 57 ed 3d ca 39 48 bf ab 76 f9 bd
       -0.76266754 0.11588875 -0.7821318 -0.12180837
000010 f1 32 43 3c 2b ff a1 be 57 87 69 3d 75 30 e0 3d
       0.011914001 -0.3163999 0.057013836 0.109467424
000020 c7 43 4b 3d 99 16 3a be 7c 0d ec bd 18 fe 7c 3d
       0.049625184 -0.18172683 -0.115260094 0.06176576
000030 10 06 37 bc 7d bd 5d 3e 1d fb 53 bd 50 11 db 3d
       -0.011170879 0.21654315 -0.051753152 0.106966615
000040 fa e8 22 3e c1 98 6f 3d de 6f 96 bd 1a de e8 bd
       0.15909186 0.058495287 -0.07345556 -0.113704875
000050 90 1a 2e 3e b0 78 35 3d ca d1 84 3b b4 70 3c bc
       0.1700232 0.04430455 0.004053329 -0.01150148
000060 c2 38 97 bd ea 6a 91 be 90 15 30 be c7 dd 33 3d
       -0.073838726 -0.2840188 -0.17195725 0.043912675
000070 fb 2b bc 3d 79 80 c2 be 00 6c 99 bc 30 d8 26 3d
       0.09188076 -0.37988642 -0.018728256 0.040733516
000080 c3 e0 79 3d 9d 5d 67 3e fa b4 9f 3d f5 10 cc be
       0.061005365 0.22594304 0.077981904 -0.39856687
000090 3d 0a 5d be 7f 8a 23 bf 83 8d b7 3d 6c 47 69 be
       -0.21585937 -0.63883203 0.08962538 -0.22781152
0000a0 4f ba 37 be ab 90 3f be 5c 32 e5 bd 4c 6f ea be
       -0.17942165 -0.1870753 -0.11191246 -0.45788038
0000b0 68 27 a9 3d ed c3 56 be 91 e8 b9 be ac 79 97 3d
       0.08259469 -0.20973177 -0.36310247 0.07396254
0000c0 d0 21 09 be c8 1c de bd 3d 22 89 bd 33 a6 97 be
       -0.13391805 -0.10845333 -0.066959836 -0.29618987
0000d0 de 03 2c bf 51 85 94 3e 06 9c ef 3d 7c ec 69 3e
       -0.671934 0.29007962 0.11699681 0.22844118
0000e0 a2 f0 2c be fa d8 b2 be 43 2a e2 bd 08 3b f1 3c
       -0.16888669 -0.34931165 -0.11043217 0.029447094
0000f0 9e 17 0e 3e 9e 8f 43 be fb c7 52 bf 96 9b ae bd
       0.13876197 -0.19097754 -0.82336396 -0.085257694
000100 c4 cc f0 bd 09 a7 c6 bc 67 23 54 bd f7 3a 9e be
       -0.11757806 -0.02424957 -0.051791575 -0.30904362
000110 31 b5 10 3d 93 ff 0a 3e fc 16 54 3e 5d b8 73 3b
       0.035329048 0.13574056 0.20711893 0.0037188747
000120 bb 8e 55 3e 55 1c 2c bf 23 9e 6f bf 99 b9 02 3f
       0.20855229 -0.6723073 -0.9360067 0.5106445
000130 3b e4 23 bf 53 ce a8 3d a6 82 25 be b9 ac de be
       -0.6402013 0.08242478 -0.1616312 -0.43491152
000140 4f 13 9f 3e 14 71 ab be ad fd 5d 3e f8 be cd be
       0.3106942 -0.3348471 0.21678801 -0.4018476
000150 fa 38 22 be 5a 0c eb 3c a6 dc 78 3c 98 92 78 3b
       -0.15842047 0.028692413 0.015189325 0.0037929174
000160 7b 37 ed bd 07 5a 83 3e 56 e7 d6 bd 28 a9 f7 3d
       -0.11582848 0.25654623 -0.104933426 0.12092811
000170 84 39 80 3d 81 6a 85 3c 3c 8f 5e 3b 33 86 e9 3d
       0.0626097 0.016286137 0.0033959886 0.114025496
000180 33 6b 56 bf 5d 73 85 3d 39 cd a0 3e 0e 8c 0e bd
       -0.83757323 0.065161444 0.31406572 -0.034801535
000190 92 22 50 3e 58 66 e2 bc 16 b9 19 be 02 85 21 be
       0.20325688 -0.027636692 -0.15012011 -0.15773395
0001a0 9b 27 12 3e 22 3b 77 bd 73 84 7d be 6c 10 82 3d
       0.14272921 -0.060359128 -0.24757557 0.063507885
0001b0 83 a3 4e 3e 1c d4 4c 3d e3 dd 2d 3e 31 e4 9b 3d
       0.20179562 0.05000697 0.16979174 0.076118834
0001c0 18 98 07 be 08 ef 69 3e 47 86 7f 3e 17 b0 8c bd
       -0.13241613 0.2284509 0.24953566 -0.06869524
0001d0 82 bf b7 bd c0 c6 61 bf 19 9a 82 be 4a 4e af 3e
       -0.08972074 -0.88193893 -0.25508192 0.34239417
0001e0 1c e5 b1 be 4f 1c cc 3c f3 1d 16 3e 41 d9 a4 be
       -0.3474511 0.024915842 0.14659862 -0.32197002
0001f0 88 25 72 bf 67 b1 51 3e 72 df 33 be d0 b4 1e bf
       -0.9458852 0.2047783 -0.17565706 -0.6199465
000200 46 d7 e6 be bb 1a 1a 3e 8b b9 de be f6 76 b4 3d
       -0.45086116 0.1504926 -0.43500933 0.088117525
000210 9a 11 c8 3c d7 a9 26 bd 41 02 52 be 73 52 28 3d
       0.024422456 -0.040689316 -0.20508672 0.041094255
000220 79 4b 9b bd 3d 99 8f bd 42 61 e4 3d 73 18 be bc
       -0.07582755 -0.0701165 0.11151363 -0.023205018
000230 9f 13 b8 bd ef b4 02 3e c4 e3 aa bd 3d 4f e7 bc
       -0.089881174 0.12764333 -0.08344224 -0.028236026
000240 f5 d4 4d 3e 68 6c 89 3d 6a 50 e7 3a ea bd 6a 3d
       0.20100768 0.0671013 0.0017647867 0.057310022
000250 b9 3d 91 3d b5 81 93 3d da f6 83 bc cf 73 07 3e
       0.07091851 0.07202474 -0.016108919 0.13227771
000260 c1 23 16 be c9 ca 98 bd 34 0f 9b bb 3d 0a 3e 3d
       -0.14662077 -0.07460553 -0.004732037 0.046396483
000270 4e fe 0c 3e be c2 83 be b4 c1 b3 bc 17 a4 b8 3d
       0.13768885 -0.25734514 -0.02194295 0.09015673
000280 dd be 46 3d b6 ad 26 3e 91 13 ad 3d 5b b0 17 bd
       0.048521865 0.16277203 0.084509976 -0.03703342
000290 61 10 6b be 25 65 8c be be f7 26 bd 9c f5 08 be
       -0.22955467 -0.27420917 -0.04076361 -0.13374943
0002a0 82 bf d9 3c e9 0c 7d bd f7 48 06 3d cb 3b 19 be
       0.026580576 -0.06177989 0.03278443 -0.14964215
0002b0 60 73 35 3e 3b b3 cb bd fc ad 59 bd 48 33 73 3d
       0.17719793 -0.09946295 -0.05314444 0.059375077
0002c0 71 28 23 bc 0f c5 83 bc df 45 82 3c 80 3e cd bb
       -0.009958372 -0.016085176 0.015902458 -0.006263554
0002d0 db 5e 9f be 34 23 17 3b ef 7f 9d bd d4 54 e6 3d
       -0.31127056 0.0023061754 -0.07690417 0.112466484
0002e0 89 42 e6 bd ea 87 9a bd 44 7e 1b bd a7 c3 cc 3d
       -0.11243159 -0.07545455 -0.037962213 0.09998255
0002f0 e0 9d af 3d 56 ae 75 bd 79 70 0a bf 40 b8 3a be
       0.08575034 -0.059980713 -0.5407787 -0.18234348
000300 07 cf 04 be ef 56 44 bd 69 06 ab 3d 85 6b b8 bd
       -0.129696 -0.04793447 0.08350832 -0.09004883
000310 f4 c4 fe 3d f8 d9 4d 3c c4 36 00 3e 77 60 d9 3c
       0.124399096 0.012564175 0.12520891 0.026535256
000320 30 1f 20 3e 97 3e c4 be 8c 98 15 bf a2 5d 0a 3e
       0.15636897 -0.38329002 -0.58435893 0.1351228
000330 55 f3 dd be 27 02 f0 3d 2c 84 36 be eb 58 3e 3c
       -0.4334971 0.117191605 -0.17823857 0.011617879
000340 ac 8a 4f 3d eb 9f 33 bd e4 61 19 3e d1 fa 4a be
       0.050669357 -0.04385368 0.14978749 -0.19822241
000350 4f 7c db 3c e5 c7 20 3e c4 c0 84 bd b7 92 15 3c
       0.026792673 0.15701254 -0.064820796 0.009129218
000360 58 50 19 3c f0 de b6 3d f9 5c 66 3d 50 59 d5 3d
       0.009357534 0.08929241 0.05624101 0.10417426
000370 08 48 65 bc 89 a6 99 bb 2c 65 74 3d 4a 17 d4 3d
       -0.013994224 -0.004689042 0.059666798 0.103560045
000380 1b 66 17 bf cf a0 ac bb 79 25 35 3e 34 56 0a 3e
       -0.59140176 -0.0052681933 0.17690076 0.13509446
000390 6e ec 47 bc ee 71 10 3d f8 9d a1 bb 8e 28 9f 3d
       -0.012202365 0.0352649 -0.0049321614 0.07771407
0003a0 fa b7 d0 3c a0 f0 11 3d 44 9f f9 bd ce 14 44 3d
       0.025478352 0.03562987 -0.12188581 0.047871403
0003b0 c2 c0 3a bb a4 22 35 3d 7e 5a c9 3b fc 33 0a 3e
       -0.002849624 0.04422249 0.0061448207 0.13496393
0003c0 de 01 b9 3b 6d 94 8a 3d cf 5c 73 3d 3f 15 07 bd
       0.0056459745 0.06766591 0.05941468 -0.032979246
0003d0 3e 5f 21 3b ae 3c 33 bf d8 d1 7a bd e7 70 b6 3c
       0.002462342 -0.70014465 -0.06123528 0.022270633
0003e0 f3 bc ef bd 4f c8 4e bd ba d3 81 3d 34 8c 04 be
       -0.11705961 -0.050483998 0.06339212 -0.12944108
0003f0 05 5f 01 bf 5e 7f da 3d 2c f1 4a bd b3 96 2e be
       -0.50535613 0.106688246 -0.049546406 -0.17049675

lstm.bias_hh_l0 f4 [512]
000000 cb 05 4d bf 02 39 b8 3d 26 9f 40 bf ad f1 4c be
       -0.80086964 0.089952484 -0.7524284 -0.20014067
000010 b7 3e be bd 7f fc 3e be 67 89 cb 3d 8f a9 2d bd
       -0.09289306 -0.18651007 0.09938317 -0.04239803
000020 32 41 34 3e a2 9f 0c be 66 ca 03 be 78 19 c3 3d
       0.17602995 -0.1373277 -0.12870178 0.09526342
000030 bc 01 a4 3d 77 93 94 3e 59 11 db bd 5c a5 21 3e
       0.08008143 0.29018757 -0.10696668 0.15785736
000040 8b 44 8d 3e 93 7b 8a bb 82 68 bb bd a5 55 5e be
       0.27591357 -0.004226157 -0.09150793 -0.21712358
000050 fb ff 70 3e 0d cc e0 3d 75 4e 6e bc 3a 16 b0 3d
       0.23535149 0.109764196 -0.014545073 0.085979894
000060 2f 56 2a be 19 5c 82 be ae bb 47 be 5b 47 cc 3d
       -0.16634439 -0.2546089 -0.19505188 0.099745475
000070 99 cb 9b 3d 50 a4 9c be 0a 7e 9c bd 3b c5 0d 3d
       0.076071925 -0.3059411 -0.076412275 0.03461192
000080 90 56 0d 3c 80 ee 2b 3e d5 88 dd 3d da 45 cd be
       0.008626595 0.167902 0.10817114 -0.40092355
000090 e5 96 d1 bd d3 f1 02 bf c9 96 ea 3d 6d 83 15 be
       -0.10233859 -0.51150244 0.11454541 -0.14600916
0000a0 cc 05 dc bd 19 0f 5c be 5d ab c5 bb 99 74 c8 be
       -0.10743293 -0.21490134 -0.006032391 -0.39151457
0000b0 b8 da ba 3d 2b f9 93 be 0b ab bd be 8b 94 5e 3d
       0.091237485 -0.28901038 -0.37044558 0.05434088
0000c0 54 3b 6e be ed f5 3f be 0d c2 8d bc 8a dc 1f be
       -0.2326482 -0.18746157 -0.017304445 -0.15611473
0000d0 eb 74 27 bf 92 34 9a 3e 34 18 a8 3c cc 51 01 3e
       -0.6541278 0.30118233 0.020519353 0.1262886
0000e0 2c 53 93 be ed 40 e4 be fb 7d da 3b a6 14 75 3d
       -0.28774393 -0.44580784 0.00666785 0.059834145
0000f0 ae 07 97 3d f8 f9 9d be 22 c3 62 bf 31 a3 0e be
       0.07374512 -0.30854774 -0.88579 -0.1392944
000100 64 36 2f be 46 98 bd 3d 45 e1 bd bd 6a 34 97 be
       -0.17110592 0.092575595 -0.092714824 -0.29532176
000110 02 72 fc 3d e7 41 93 3d d0 fd 5f 3e d9 d3 5d 3d
       0.12326433 0.07190304 0.21874166 0.05415711
000120 8c 9d fa 3d eb af 30 bf b3 4c 4d bf 04 aa b3 3e
       0.12237081 -0.6901843 -0.8019516 0.3509065
000130 aa 5a 1b bf de 3d 56 3d 3e 0a 8d be a3 2b b5 be
       -0.6068522 0.052305095 -0.27546877 -0.35384855
000140 87 d2 a5 3e bb f7 b7 be 94 66 2d 3e ba ac f8 be
       0.32387182 -0.3593119 0.16933662 -0.4856928
000150 56 c5 19 be 90 69 6d bd d2 b0 84 3d 5e c0 8a 3d
       -0.15016684 -0.057962 0.06479038 0.067749724
000160 da 43 15 bd 37 c7 52 3e 20 8c cf bd 71 f5 00 3e
       -0.03644166 0.20583807 -0.101341486 0.12593628
000170 aa d9 75 bc ee 98 43 bd c0 9a b7 3d 4a 18 2f 3e
       -0.015005508 -0.047753267 0.08965063 0.1709911
000180 b6 2c 5d bf e0 f9 0e 3d d6 ee 81 3e e0 7a 48 3d
       -0.8639635 0.034906268 0.2537753 0.048945308
000190 3f cf a8 3d 2b 16 cd bc ff 17 c3 bd f1 7c 2c be
       0.08242654 -0.025034985 -0.09526061 -0.16844536
0001a0 57 b0 a3 3d 36 47 53 be bb ef 7d be ed d1 11 3e
       0.079926185 -0.20632634 -0.24798481 0.14240237
0001b0 7e ce 05 3e 5a 13 8e bd 21 d4 aa 3d 34 1c 41 3c
       0.13067052 -0.06937285 0.08341242 0.011786509
0001c0 b1 3b ec bd a0 f1 2e 3e f8 03 6b 3e 03 b0 fa 3c
       -0.11534823 0.1708436 0.22950733 0.030601507
0001d0 4a 05 b0 bd 0e 98 70 bf 2f bf 99 be 88 c2 b0 3e
       -0.08594759 -0.9398202 -0.30028674 0.34523416
0001e0 02 16 b7 be 69 66 31 3d 51 84 23 3e b4 5e 1d be
       -0.35758978 0.043310557 0.15968443 -0.15368158
0001f0 68 a4 71 bf b8 72 2c 3e ac 50 51 bd f0 bf 1f bf
       -0.9439149 0.16840637 -0.051102325 -0.6240225
000200 30 57 c5 be 02 c9 e5 3d 20 ba 19 bf df 32 0c bc
       -0.3854308 0.1121998 -0.6004963 -0.0085570505
000210 4d 4b c4 3b 4d bc 40 be 13 dc 15 be b8 11 1b 3e
       0.005990422 -0.18821831 -0.14634733 0.15143478
000220 00 ff a2 3b 75 72 74 bd 2c 19 fb 3d 9e b2 53 3d
       0.004974246 -0.059679467 0.122606605 0.051684014
000230 af 82 e6 bd 61 32 7c 3d a0 7f fa bd ec eb c7 3c
       -0.11255395 0.061571483 -0.12231374 0.024404489
000240 08 85 08 3e 53 cb 75 3d 1f 5e c4 bc 2c 3a b8 3d
       0.13331997 0.06000836 -0.023970662 0.089954704
000250 d0 6e 8b 3d 85 8d ba 3d 01 53 0b be 84 23 b9 3d
       0.06808245 0.09109024 -0.13605882 0.09039977
000260 fc eb 64 be e3 71 05 3c ff 93 a8 bc 15 1d ea bc
       -0.22355646 0.0081448285 -0.020578383 -0.02857832
000270 8a 16 cd 3d 50 b6 17 be 02 16 60 3c 79 00 e0 3d
       0.100140646 -0.1481564 0.013677122 0.1093759
000280 5e 82 28 3d d9 ae a8 3d 37 0f d6 3d e2 6e 04 be
       0.041139953 0.082364745 0.10452121 -0.12932923
000290 bc f8 27 be 2e 28 9c be e5 c0 d4 3d e8 a9 39 be
       -0.16403478 -0.30499405 0.10388354 -0.1813122
0002a0 ed e2 c8 3d 0c 3c 63 bc ec da ef 3b 15 7b 0f be
       0.09808908 -0.013869297 0.0073197987 -0.14011796
0002b0 9d 5a 4b 3d f8 50 11 bd f1 a5 b2 bd df 3e e3 bc
       0.049646962 -0.03547761 -0.08723057 -0.02773994
0002c0 d1 ad b7 3d 4f 7f bb 3a da f7 09 3e 6c 1f 69 bd
       0.089687 0.0014304909 0.13473454 -0.05691473
0002d0 ea 4f be be 4a af f7 3d f2 1f 81 bd 0b 1c 59 3d
       -0.37170345 0.120939806 -0.06304921 0.05300526
0002e0 18 9a aa bd 23 fd b4 bd b8 86 16 bc 09 22 37 3e
       -0.08330172 -0.088373445 -0.009187393 0.17884077
0002f0 ef b6 5d 3d 02 81 a3 3b 7f 15 0a bf 37 5e e3 bd
       0.054129537 0.004989744 -0.5393905 -0.111019544
000300 d6 2f 80 bd e6 4c f3 bd ca 59 9a 3d 14 40 19 3d
       -0.06259124 -0.118799016 0.07536657 0.037414625
000310 ad 98 1c 3e b1 42 a3 3d 3d 6d 0c 3e aa 6e 6c 3d
       0.15292616 0.07971705 0.13713546 0.057722725
000320 1b fe 75 3d 22 01 e3 be 22 f7 3a bf 2e 7f 8a 3d
       0.060056787 -0.44336802 -0.73033345 0.06762539
000330 ac 76 e9 be bb 61 ef 3d f6 0a 8f be 3b f4 65 bd
       -0.45598352 0.116885625 -0.2793805 -0.05614112
000340 5b 1a 09 bb 40 63 f5 bb 93 c1 ae 3d bf 99 a1 be
       -0.002092025 -0.007488638 0.08533015 -0.3156261
000350 85 86 db 3c 2b b9 ce 3d e8 9a 39 3c 0a d5 8b bd
       0.026797542 0.10093912 0.011328436 -0.06827743
000360 14 3b 45 3d 33 c7 c1 3c dc b4 39 3d 9b 64 f5 3d
       0.048152044 0.023654556 0.045338497 0.119820796
000370 a1 f9 02 bd d0 38 da 3c d1 f1 02 3e d8 61 41 3e
       -0.031976346 0.026638418 0.12787558 0.1888498
000380 4a 45 0b bf d3 a4 1e 3b 62 18 2a 3e f3 b7 3a 3e
       -0.544026 0.002420713 0.16610864 0.18234234
000390 70 e9 c7 3d 5e 23 03 3e b3 2c 8b bc 4c 30 7b bc
       0.097613215 0.1280646 -0.016989088 -0.015331339
0003a0 b6 06 bc 3b df 4d 18 3a 8d 57 3e be 03 12 35 3d
       0.0057381047 0.00058099435 -0.18588085 0.04420663
0003b0 38 ce 46 3c 29 c5 6e bc 99 a4 04 3d 80 ff 77 3d
       0.012134127 -0.014573374 0.032383535 0.0605464
0003c0 69 bc 42 bd 24 cb 8e 3d b0 3e 29 3d 67 56 85 bc
       -0.047542963 0.0697234 0.04131955 -0.016276551
0003d0 7b 65 dd bc c5 78 47 bf aa 61 2f bd b2 b8 3d 3c
       -0.027025929 -0.77918655 -0.04281775 0.011579679
0003e0 9a 19 07 be 29 dc 37 bd 26 a3 c8 3d 42 6f 12 be
       -0.1319336 -0.044887695 0.09796743 -0.14300254
0003f0 64 40 1a bf 82 1e b9 3d 86 1c a1 3c 74 f3 e3 bd
       -0.602545 0.09039022 0.019666921 -0.111304194

linear.weight f4 [2, 128]
000000 7e 77 2b 3e a7 3f 6f 3d a3 74 0d be 00 d8 71 3e
       0.16744801 0.058410313 -0.13814025 0.23617554
000010 d0 cd 1c bd 7e 35 61 be 4b 2b a5 3e 6c d1 93 3e
       -0.038282216 -0.21993062 0.32259592 0.28870714
000020 26 6e 71 3e 72 b8 9b 3d 09 b5 8d be e1 01 23 3e
       0.23577175 0.076035395 -0.2767718 0.15918685
000030 62 16 ac be f3 85 5c 3e 86 44 64 3c 5c ac 0c be
       -0.33610827 0.21535473 0.013932353 -0.13737625
000040 e3 c2 ba be c7 1c 9b 3e d4 08 8c 3e 6b 6b 92 be
       -0.36476812 0.30295393 0.27350485 -0.28597578
000050 a3 d3 81 3c b8 df 7b be f8 37 84 3e 34 3f f3 3d
       0.015847987 -0.2459706 0.2582395 0.118772894
000060 db f1 af 3e 51 12 da 3d bf ac a2 be 35 7b 49 3e
       0.3436421 0.10648025 -0.3177242 0.19675906
000070 30 2f 31 3e ca 5c 47 3c c0 50 b4 3d 02 47 a3 3e
       0.17303157 0.012168119 0.08804464 0.31890112
000080 1d 0e b2 bd ca 12 aa 3d 91 06 5b be 51 29 68 3e
       -0.08694098 0.08304365 -0.21389224 0.22672011
000090 10 be 01 bd 3a 5b e0 3d 7e e1 b8 be 4f c5 8e be
       -0.0316754 0.109549 -0.36109537 -0.2788491
0000a0 00 ba 6e be 4d cc ea 3d f4 4a e1 bd f2 01 26 3e
       -0.23313141 0.114647485 -0.11000624 0.1621168
0000b0 70 dd 59 3d 25 75 32 be e5 c2 8a 3e 25 e9 04 be
       0.053189695 -0.174275 0.27101818 -0.12979563
0000c0 9f 2e 99 3e 16 4c f2 3d 39 a2 a0 3e 3b 57 68 3e
       0.29918382 0.118309185 0.31373766 0.22689526
0000d0 8e 76 cd 3c 04 1f de be 99 4b 47 be 2a 27 71 bd
       0.025080945 -0.43383038 -0.19462432 -0.05887524
0000e0 c7 11 55 3d 14 40 54 3e 04 ae b0 be 61 e0 9e be
       0.052018907 0.20727569 -0.34507763 -0.31030563
0000f0 e8 8c a3 3e be d3 14 be 56 bd 1b 3e 6c fb a8 3d
       0.3194344 -0.14533898 0.15208945 0.0825108
000100 8d 5b 7d 3e c0 02 b8 3c 1d 0a 95 be fb e1 64 be
       0.24741955 0.022462249 -0.29109278 -0.2235183
000110 2c f5 a5 be c9 12 71 3e fd 6d 41 3d 5f ab 93 be
       -0.32413614 0.23542322 0.047224034 -0.28841683
000120 18 b8 32 be c0 40 ee bb 54 05 02 be 59 7b e5 3e
       -0.17453039 -0.0072709024 -0.12697345 0.4482067
000130 09 95 5f bc 3b e5 69 3d 06 72 57 3d 6c 66 61 be
       -0.013646373 0.057103377 0.052598976 -0.22011727
000140 49 f8 4c 3e 83 14 73 be e1 ae ce be e0 23 ce bd
       0.20016588 -0.23738293 -0.40367797 -0.10065436
000150 5d 38 41 3e f4 e9 f0 3d 60 25 fb bd d6 d0 4b 3e
       0.18869157 0.11763373 -0.12262988 0.19903883
000160 57 75 8a 3e 97 f1 8d 3e b8 69 4e 3e d0 c7 84 3e
       0.27042648 0.2772338 0.20157516 0.25933695
000170 a5 b6 ae be 23 d1 a8 3d c7 4a 97 3e 40 c3 1e 3e
       -0.34123722 0.08243015 0.29549238 0.1550417
000180 61 74 e7 3c 42 3c 5b 3e f9 59 fb be 47 e8 7c be
       0.028253736 0.21409705 -0.4909208 -0.24697982
000190 eb dc 74 3e 7b e2 22 3d a3 66 87 3e d7 47 96 be
       0.23912399 0.03976677 0.26445493 -0.29351684
0001a0 a6 d4 a6 be 33 17 a1 3e 94 9a e3 3d cf 8c d6 bd
       -0.32584113 0.31463012 0.11113468 -0.10476076
0001b0 a1 68 9c be 03 17 05 bc 23 e8 99 be c8 40 63 be
       -0.30548576 -0.008123162 -0.3005992 -0.22192681
0001c0 0a af 5d 3e 3f 8c f8 3e 4b 62 b6 3e 6c a8 ca bc
       0.21648803 0.485445 0.35621867 -0.024738513
0001d0 52 ff 8d be ae 00 ed bd 79 a1 8d be 28 20 bb 3e
       -0.27733856 -0.11572395 -0.27662256 0.3654797
0001e0 bf ae 8f 3e 7c af ac be 61 89 66 be 7c d3 a4 bc
       0.28063008 -0.33727634 -0.22513343 -0.020120375
0001f0 a3 c5 0f be 21 f5 82 be 21 c9 42 be 71 48 50 3e
       -0.14040236 -0.25577644 -0.19022037 0.20340134
000200 29 66 2b bd 92 f9 e3 be af 79 90 3c 9f 60 05 bd
       -0.041845474 -0.44526345 0.017636148 -0.03256285
000210 71 04 a7 3e 8c 0d 90 bd 4d c0 3f 3e d1 47 6a 3d
       0.32620576 -0.07033834 0.187257 0.057197396
000220 6a bb 73 3e e5 14 27 be f0 66 96 3d 46 4d 74 be
       0.23801962 -0.16316564 0.073438525 -0.23857602
000230 c4 3e 09 be f8 d8 9a 3e eb 88 90 3e 7c 47 92 be
       -0.1340285 0.3024366 0.2822946 -0.28570163
000240 8a f3 55 be a6 3f cf 3d 91 bf 76 be b0 f1 05 bc
       -0.20893684 0.10119562 -0.24096514 -0.008175299
000250 d4 c2 b1 3e bd be 98 3e 3e e4 08 3e 3b b6 a0 be
       0.34718955 0.29833022 0.13368317 -0.3138903
000260 82 d0 b7 3d 49 6a 89 be 38 1c 22 3e 97 5e 86 be
       0.089753166 -0.26838902 0.15831077 -0.2624404
000270 e7 c0 9e be 8d f8 85 3e 14 8d 89 be 22 24 c1 3c
       -0.31006548 0.26166192 -0.26865447 0.0235768
000280 e4 2c a6 3e ae 18 b3 3e 89 b7 93 3e 48 15 d3 3d
       0.32456124 0.34979767 0.28850964 0.103067935
000290 31 66 84 be a0 e8 4e be 3d e5 3d 3c 43 16 de bd
       -0.25859216 -0.20205927 0.011590299 -0.1084409
0002a0 e6 79 15 be b0 d0 7c be dd 5e 89 3e 75 77 5f be
       -0.14597282 -0.24688983 0.26830187 -0.21822913
0002b0 35 b1 ad be e3 57 86 3e 0a 96 53 bd 55 df 8b be
       -0.3392426 0.26238927 -0.05165676 -0.27318826
0002c0 fa 4b a4 3d 2f 06 8c be 56 65 c4 bd 71 dd 0f 3e
       0.08022304 -0.27348468 -0.09589641 0.14049317
0002d0 78 c4 4e 3e 75 e8 97 3e 3b d0 81 be 0f 8a c0 3e
       0.20192134 0.29669538 -0.2535418 0.3760533
0002e0 25 3d 82 be 8d a0 3e bd 18 86 25 bd b1 a1 d8 bd
       -0.25437275 -0.046539832 -0.040411085 -0.10577715
0002f0 88 ce 61 3e 82 80 91 3e ee 9b e7 3d 9d 7d 85 be
       0.22051442 0.28418356 0.11309038 -0.26072398
000300 11 bb 0f 3e 0d 2c ba 3e 63 c1 92 bd af ec 02 be
       0.14036204 0.36361733 -0.07165792 -0.127856
000310 3b a0 3c be 2b 43 83 be f0 23 b9 be d3 c1 b0 3d
       -0.18420498 -0.25637183 -0.3616023 0.08630719
000320 df f2 95 3e 51 3b 43 3e bc 53 66 bd b6 a1 18 3d
       0.29286858 0.19065596 -0.0562322 0.037263595
000330 50 45 39 be 29 38 a1 be 85 7f 8e be 76 94 03 be
       -0.18092847 -0.3148816 -0.27831665 -0.12849602
000340 a2 c9 a3 3e 5b af 35 bb 1c 92 89 3d 77 07 5c 3e
       0.3198977 -0.0027722928 0.06717321 0.21487223
000350 b7 b9 7c be 85 07 98 be 6f cc a2 be b3 e4 a5 3e
       -0.2468022 -0.29693237 -0.31796595 0.32401046
000360 52 bf 8a bc 3a d9 82 3e b9 4a 6c be 46 e6 b0 3e
       -0.016936932 0.25556356 -0.2307538 0.34550685
000370 59 e0 1e be 4b d1 85 be dd 39 34 3e fc 1c 96 be
       -0.1551527 -0.2613624 0.17600198 -0.29318988
000380 f4 c2 31 3e 52 39 7f 3e 76 7d 8c 3d 13 35 6b 3e
       0.17359525 0.2492421 0.06859867 0.22969465
000390 3c 1f 7e 3e ca 17 a0 be a7 bf 50 3e 9a 5f 13 be
       0.24816602 -0.3126815 0.2038561 -0.14391938
0003a0 fc 2f c7 3c 3a 3a e9 3a 73 be 83 3e 36 5a ab be
       0.024314873 0.0017793842 0.2573124 -0.33467263
0003b0 94 2a 57 be e1 1c b0 be 59 17 37 3e cb af 99 3e
       -0.21012336 -0.34397033 0.1788 0.30016932
0003c0 ad 17 7e be 25 57 d1 3c b2 9b 87 3e f1 0f a5 be
       -0.24813719 0.025554249 0.26485974 -0.32238725
0003d0 48 65 c1 bd a0 60 83 bd 8f f5 3f 3d 19 84 99 3e
       -0.09443146 -0.06414914 0.046865042 0.29983595
0003e0 78 38 a7 bd c5 d0 5b 3d fa b2 a6 3e b4 d3 90 3e
       -0.081650674 0.053665895 0.32558423 0.28286517
0003f0 93 1b a3 3d f5 56 8f be 56 94 5f 3e 8e b7 5b 3d
       0.07964244 -0.2799603 0.2183393 0.05364185

linear.bias f4 [2]
000000 94 5e c6 bd 02 cd f7 3c
       -0.09686008 0.030249123
