Pretrained/model.pt (torch, 633799 bytes, 6 tensors)

lstm.weight_ih_l0 f4 [784, 2]
00000000: dee2 f93d 1b08 1e3e 23fb a23d 7226 b23d
00000010: a019 79bd de7d cebc 3f0e 293d b835 633e
00000020: b7e9 fabb 4326 193d 8e3a df3c 10d9 9f3c
00000030: b861 483c 9eba 60bd b5d0 2abb 8cea fe3c
00000040: 9901 03bd b6e6 cabd bbc4 203d 5638 bfbd
00000050: 8913 fbbd 35fc 3ebd 975a bdbc e964 16bd
00000060: f077 fbbc 74ee 45bc 41ae 903e 2724 ed3c
00000070: bf16 91bd aa92 53bc 8b0d 2f3d a2a9 2ebc
00000080: 80ad 9e3d 101a 24be 2b9c a5ba 224e c63d
00000090: 973e a2bd d5d0 c3bc c388 a2bd 7780 213d
000000a0: 2966 f6bc d5d3 e03c efe5 0c3d 5c61 3e3d
000000b0: a6b4 153e a6f5 7dbd 2406 2aba 0836 3ebd
000000c0: 0398 26be f28c 41bd aa4b a4bc 1b0f 68bd
000000d0: a29a e4bd def4 2a3d ad89 783d 22b1 c3bd
000000e0: fdf9 9eba 12be 863d dac5 73bd 19b5 493e
000000f0: 499d a83d cb3d 8fbd a2ce 45bd ae1b 283e
00000100: 1103 223c 6430 1abe 0f3a f5bd 5184 ed3c
00000110: 8e36 2dbe 323f 9c3c 20fe 9b3d 70a8 b8bc
00000120: 341a 163d 4f89 cf3d 0560 883d 7f2a 893b
00000130: c667 0abd e0c7 9e3c 56de b53d 1fdd 09be
00000140: 2316 fabc d965 9d3e 5f8c 16be 9a6d 60bd
00000150: 5538 b4bd 25a4 323d 2989 9dbc a40b 6e3c
00000160: 4be1 cbbd 4c05 65bd 2669 d4bc 9a7e 3a3d
00000170: ac8f fdbd 69d3 34bd 0114 c23d ac69 243d
00000180: 004e d2bd e563 363e d33b 30bd 1eef 61bd
00000190: 4206 1fbe 3b86 dabb 05fb 693d 730a 863d
000001a0: e695 853d 0d8b 123d 5025 e6bd 40de 5ebc
000001b0: dfcb 003d 65cb 6e3c 4f75 24be 24bc 3e3d
000001c0: 1179 bebb 0573 7dbb 5d9c 9abd 7834 f5bb
000001d0: e58a b3bc 4450 dbbc d646 f43c 1de0 333d
000001e0: e26f a2bc f1ee c3bd c6b7 933d e05e 0ebe
000001f0: 80b9 1dbd 072e 02be 2503 49be 7af3 81bd
00000200: f11b 9abd bc26 9dbb 4df1 bebc 3da9 0ebd
00000210: 8e42 2abd f144 95bd d67f 9cbd e3b7 4f3c
00000220: cfcd c8bd 0ed2 663d 6017 f13b 5273 04be
00000230: 45d3 0d3b 1d02 c93d 47d5 49bd cd3b a03d
00000240: c218 8cbc 60fd 063e 47cd 01bb 0968 8cbd
00000250: a41b 02ba 5a31 7bbd d978 edbc ec50 d93c
00000260: d824 b03c d143 843e 8161 983c 25e4 09be
00000270: 23bf 21bd ddf2 c43c 71c0 653e a68c a4bc
00000280: 79e1 15bd 56de 493e 800c d3bc 1909 23bb
00000290: 82f8 c83d 7b22 2e3d fcab fbbd 2b30 e93d
000002a0: 72b9 dbbb 4b3e 6bbd 4c6e 353d 2c26 c7bd
000002b0: a49d 933d 900b 2c3e b853 a3bd 4ce7 abbc
000002c0: 4a56 813d 92dc 413d 3bd3 853d 9ba4 143c
000002d0: 9d13 a7bd d3e8 f6bb 892d d23b 75a2 e63d
000002e0: dd4c bbbd 9bbb 913c c113 96bd 87b0 a53d
000002f0: 8831 0d3d 3336 a5bd 96fe 9cbd 8af2 d73d
00000300: 6daa a23d 4da3 cd3d 252c 95bd 008a 5a3d
00000310: 77db 00bd 6578 f03d 0b79 fa3b 8604 b8bd
00000320: 835f 11be fdfb 42bd 3f55 dc3d 6075 c4bd
00000330: d79f 883d a08a 3a3e f0e7 11be eb84 ea3d
00000340: b148 f8ba 5576 4e3e dc02 ae3d da44 dabd
00000350: 12f0 5bbd e735 0fbb a606 c6bd ecf3 233c
00000360: edab babd 483c 453c c3fb ffbd 1f4e 2e3e
00000370: b6e1 9ebd 5db4 c0bd fda3 273d fd55 0a3d
00000380: 7750 ebbd d21f 9ebd 14e8 f3bc f683 0e3e
00000390: e3b1 e13d 11ea 1cbc 6a63 93bd b289 2b3e
000003a0: 9e84 1e3c ccf0 c23d b347 e83c b120 e0bd
000003b0: 8964 c9bd f81c cebc 536b e2bd cdfc d8bd
000003c0: a551 fcbd e28c dbbc df35 8abd a1aa f83a
000003d0: 3540 b0bd 5577 0f3d 8367 773d 13a7 393d
000003e0: b167 50bd 01f7 6cbd 9de4 0bbd 4f12 04bd
000003f0: cce0 aebc 3c67 1b3e 1bce cabd 7d3b d9bd
0.122014746 0.1543278 0.07958057 0.08698739 -0.060815454 -0.025206503 0.04127335 0.22188461
-0.0076572555 0.037390005 0.0272496 0.019512683 0.012230329 -0.054865472 -0.002606434 0.0311177
-0.031983946 -0.09907286 0.039250117 -0.09336917 -0.122595854 -0.046627242 -0.023114486 -0.03671733
-0.03069684 -0.012080777 0.28257945 0.028947903 -0.070844166 -0.012913385 0.042737525 -0.010660561
0.07747936 -0.16025567 -0.0012635043 0.096828714 -0.07922094 -0.02390329 -0.079362415 0.039429154
-0.03007801 0.02744476 0.03439897 0.046479568 0.14619693 -0.062001847 -0.00064859004 -0.046438247
-0.16268925 -0.047253557 -0.02005561 -0.05665503 -0.11162306 0.04173743 0.060678173 -0.0955527
-0.0012128946 0.06579222 -0.059514858 0.1969799 0.08233125 -0.06994208 -0.048292764 0.16416809
0.009888426 -0.15057522 -0.119739644 0.028993757 -0.16915342 0.019073103 0.0761683 -0.022541255
0.036646083 0.101336114 0.06658939 0.004185974 -0.033790372 0.019382417 0.08880298 -0.13463257
-0.030528134 0.30741766 -0.14701985 -0.054792024 -0.08799807 0.04361357 -0.019230442 0.0145291425
-0.099550806 -0.055913255 -0.025929045 0.045530893 -0.12380919 -0.04414693 0.09476472 0.04013984
-0.102687836 0.17811544 -0.043025803 -0.05515968 -0.15529731 -0.0066688336 0.057124157 0.06544962
0.065227315 0.03577714 -0.112375855 -0.013602793 0.031444427 0.01457486 -0.16060375 0.046566144
-0.005812772 -0.0038673293 -0.07549355 -0.0074830614 -0.021916816 -0.026771672 0.029818933 0.043914903
-0.01982874 -0.09567059 0.072127864 -0.1390338 -0.038506985 -0.1271287 -0.19630106 -0.063452676
-0.07524861 -0.0047958773 -0.02330842 -0.034829367 -0.041567378 -0.0728854 -0.0764157 0.012678119
-0.0980488 0.056352668 0.007357523 -0.12934616 0.002164082 0.09814856 -0.049275663 0.07823906
-0.01710165 0.13182592 -0.0019806193 -0.06855781 -0.0004963225 -0.061326362 -0.028988289 0.026527844
0.021501943 0.2583299 0.018601181 -0.13465936 -0.039488923 0.024041587 0.22436692 -0.020086598
-0.03659198 0.1971372 -0.025762796 -0.0024877249 0.09813024 0.042513352 -0.12288663 0.113861404
-0.0067054564 -0.057432454 0.04429464 -0.097240776 0.07207802 0.16801286 -0.079749525 -0.020984314
0.063152865 0.047329493 0.0653443 0.009072448 -0.08158038 -0.007535079 0.0064141196 0.11261455
-0.0914552 0.017789653 -0.073279865 0.080903105 0.034471065 -0.08066978 -0.07665746 0.105443075
0.079426624 0.10040913 -0.072838105 0.053354263 -0.031459298 0.117417134 0.007643824 -0.08985238
-0.14196591 -0.047603596 0.10758447 -0.095927 0.06671112 0.18216944 -0.14248633 0.11451133
-0.0018942562 0.20162328 0.08496639 -0.10657664 -0.053695746 -0.0021852197 -0.09669237 0.010006886
-0.091148235 0.012038298 -0.124991916 0.17021988 -0.07757895 -0.094094016 0.040927876 0.03377341
-0.11489957 -0.07720913 -0.02977375 0.13917527 0.11020257 -0.00957729 -0.07196696 0.16751745
0.009675173 0.095185846 0.028354501 -0.109437354 -0.09833629 -0.025160298 -0.11055627 -0.10595093
-0.1232026 -0.026800577 -0.06748556 0.001897175 -0.086059965 0.035025913 0.06040145 0.04532535
-0.050880138 -0.05785275 -0.03415357 -0.032244023 -0.021347426 0.151761 -0.09902593 -0.106070496

lstm.weight_hh_l0 f4 [784, 196]
00000000: 30bc 9a3d 57e3 233e 9f3a 743d a534 9fbd
00000010: a962 26bc 1fbc 42bd 253d 3cbd af7c 203c
00000020: d264 96bb 1712 9b3d df26 f4bc 5688 f0bc
00000030: 85d2 1a3e f9da 0dbe 2f29 41bd 7cf1 ad3d
00000040: c9bb de3c 12d5 de3d 87ae a33d b2ef 563c
00000050: 993f c1bd 9dd6 d5bd 1de9 a03e 7d3e e53c
00000060: 541f 09be 44a0 023c ebec 96bd 9438 4ebd
00000070: 2136 00be 05c0 273b 33b7 d83c 861a c83c
00000080: 5233 523d cad0 5cba ac00 c83d 282d 39bd
00000090: 48bd 383c 8692 903d c131 063e a6cd 943d
000000a0: c2df 8fbe a591 1ebe 5d58 7cbd e290 f73d
000000b0: 3d73 a13c 1d92 1c3e 3ebb d9bc ee6b 14be
000000c0: a814 3d3e 75a4 1b3c 3e64 29be 3ab6 11bc
000000d0: 0d99 7b3e 2744 32bd 2775 1bbd 8191 a63d
000000e0: 8769 303d 87e8 b23d ee75 f43d 3322 e4bc
000000f0: bb0f 8dbd 967e 7b3d f297 c83d b64f a5bc
00000100: ce2b f5bc 6d67 203d 630e 0d3d 1bc6 243d
00000110: 19ca 11bc 3f11 90bd 52c2 d6bb 935d 8f3d
00000120: ae15 d9bd 572e 2abc b16a 883d f31f e9bd
00000130: 6e6f 3b3e afa6 22bc 385a 97bd 1ea2 5a3e
00000140: a0fd 993d 3cea 383d b2b0 583d 5a58 0ebe
00000150: 42e1 b23b 30d8 033d 3488 b43d 8d9c e33d
00000160: 0f45 0dbb 116d 353d b30b dc3a ba91 1bbd
00000170: a3a2 07bd 73f4 bb3d fbb4 053d f835 3dbc
00000180: 0b70 86bd 9421 273e eb04 603c 5cb6 993d
00000190: 5d29 c73b afa2 f63d 54a9 37be f744 58bd
000001a0: 72bc 49be 987c c13d 927b 973d 15a8 90bc
000001b0: 68bf fbbc bb0b ba3d c4fb c3bc 0be2 6e3d
000001c0: 1ed4 fd3d 0c87 ff3d f4f2 943d 04d9 873d
000001d0: 2a0b 803d ebc3 033e 9027 ff3c 38cc 94bd
000001e0: 5a27 ef3b 3668 e7bd 1bcf 923d 4f85 04bd
000001f0: 5dad a83d 77c0 19bd 0362 1ebe 1895 09be
00000200: ca47 253e 19ab 72bd 0a99 4d3c 7487 77bb
00000210: 648d 8a3d 2c44 673d 7aa8 8bbd 954c ecbd
00000220: 6c53 e7bd dd59 d2bb 4aea 1d3b 5714 093e
00000230: e87d a23d 64a7 0ebe 37ea 05be 2ee2 78bd
00000240: 4c7b c13d 9a49 8dbd d10b 433b 58a8 d1bd
00000250: 027a 33bc c9cd 063d 7398 00bd 5b89 1dba
00000260: 8ef6 20be 4cad df3d cd1a c73d dfe9 e9bd
00000270: fb31 2dbd f141 d6bc bff6 f63c 2cab c53d
00000280: e5aa a13d b3c5 e93c a4c3 39be 1a21 a2bd
00000290: 0ac8 823b 88cb c0bd 2fcf a2bb c415 033d
000002a0: 2690 6a3b f1ec f3bd 385a 1fbd cd98 a73d
000002b0: 993f 73bc 0a6c 163d 3699 abbc f820 693d
000002c0: b270 10be e891 d2bc 3a7e 573c 6cc9 3f3d
000002d0: 160c d53d 0e78 f93c e307 d93d 95d3 29bd
000002e0: 65ac b9bd f7e4 31be 0904 7e3d a605 b8bd
000002f0: baa4 5a3d c7d5 cfbc 75db 9fbd 1392 bb3b
00000300: 5e22 733d 6e8b e63d 4e09 96bd aded 253d
00000310: 910a d1bd 4892 bebc dffd f23b 0bab 9abd
00000320: 583f 9e3d 5dda f3bb 7c1c ae3c 4e09 963d
00000330: 1996 c13c 8a39 28bb 8cd7 153d 9ad9 133b
00000340: 2176 7f3c 47e0 343e 3c7f 913d d801 0d3e
00000350: 033f ad3d 925e 65bc 9ef8 76bd 7373 83bd
00000360: 5859 15bd 937a 0e3e d44d 613e 74dc ca3d
00000370: c158 313e a18b 403c e7d1 8dbd 4a7c b73c
00000380: 3278 973d 4896 203d 2785 05bc 96cc 93bd
00000390: e000 4cbc e0bb 683d 06fe 2c3d 3151 87bd
000003a0: 1ec8 78bd 8671 adbd e3c2 32be 8ac2 ae3d
000003b0: e436 8dbd 4e6c 73bc 0157 09be f8b3 133e
000003c0: cf23 95bd fb72 913d 4b20 cdbd 85d6 0abd
000003d0: 59bf abbd 8448 8d3b bfcb f23d 4a57 493c
000003e0: 5684 2fbc 70af f9bd 448f 92bd ce5f e2bd
000003f0: f234 d8bb d4b6 553c f7b8 af3d d597 17be
0.07555425 0.16004692 0.059626218 -0.07773713 -0.010155358 -0.047542688 -0.04595675 0.009795352
-0.0045896554 0.0757181 -0.029803691 -0.029361885 0.1511937 -0.13853063 -0.047158416 0.08493325
0.027189152 0.10880484 0.07992273 0.013118671 -0.094359584 -0.10441325 0.3142785 0.027983898
-0.13390857 0.007972781 -0.07369407 -0.050346926 -0.12520649 0.002559663 0.026454544 0.02442671
0.051318474 -0.0008423446 0.09765753 -0.04520908 0.011275597 0.07059197 0.13104917 0.07265787
-0.281004 -0.15485246 -0.061607707 0.12088181 0.01970827 0.15290113 -0.026578542 -0.14494297
0.18464911 0.009499659 -0.16542146 -0.008893544 0.24570103 -0.043522026 -0.037953522 0.081332214
0.04306939 0.08735757 0.11936556 -0.027848339 -0.06887766 0.06140002 0.09794606 -0.02017961
-0.029928114 0.039161135 0.03443755 0.04022799 -0.0088982815 -0.070345394 -0.0065539265 0.0700027
-0.10599838 -0.010387025 0.06660975 -0.11383047 0.18304226 -0.009927436 -0.07390255 0.21350905
0.07519078 0.04514526 0.052902885 -0.13900891 0.0054589817 0.032188594 0.08815041 0.11113844
-0.0021556055 0.044293467 0.0016788155 -0.037980773 -0.033114087 0.09177484 0.0326433 -0.011548512
-0.06564339 0.16321403 0.013673048 0.075054854 0.006077929 0.12042748 -0.17935687 -0.052800145
-0.19700792 0.094475925 0.07396616 -0.017658273 -0.030730918 0.09084269 -0.023923762 0.05832104
0.12393974 0.1247693 0.07272902 0.06633189 0.062521294 0.12867706 0.031146795 -0.07265514
0.0072983922 -0.112991735 0.071684085 -0.032353695 0.082361914 -0.037537064 -0.15467076 -0.13435781
0.16140667 -0.059245203 0.012548694 -0.0037769945 0.06765249 0.0564615 -0.06819244 -0.11538044
-0.11295208 -0.006419404 0.0024095946 0.13386665 0.07934171 -0.13931042 -0.13077627 -0.060762577
0.09447345 -0.06898804 0.0029761682 -0.10237187 -0.010954382 0.032911096 -0.031395387 -0.0006009542
-0.15719053 0.10921726 0.09721909 -0.114215605 -0.042283993 -0.02615449 0.030146955 0.09651789
0.07893924 0.028536653 -0.18141037 -0.0791647 0.0039911317 -0.094138205 -0.004968546 0.03200318
0.0035791486 -0.11910427 -0.0389044 0.08183441 -0.014846706 0.036724128 -0.02094708 0.056916207
-0.1410549 -0.02570434 0.013152653 0.04682295 0.10402696 0.030452754 0.105972074 -0.041461546
-0.09066085 -0.173725 0.062015567 -0.08985452 0.05337975 -0.025370492 -0.0780553 0.0057242005
0.059358947 0.11257063 -0.073259935 0.04050987 -0.102070935 -0.023263112 0.0074155177 -0.07552155
0.077269256 -0.0074418024 0.021253817 0.073259935 0.023631142 -0.0025669062 0.036582515 0.002256012
0.015592129 0.1766368 0.07104346 0.13770235 0.08459284 -0.013999598 -0.060295694 -0.064185046
-0.036462158 0.13913946 0.22002345 0.09905329 0.17319013 0.01175204 -0.06924801 0.022398133
0.07395972 0.03920582 -0.008149422 -0.07216756 -0.0124513805 0.056819797 0.042234443 -0.06607283
-0.06073772 -0.084689185 -0.17457156 0.08533199 -0.06895235 -0.014857365 -0.13412096 0.14424121
-0.072822206 0.07102009 -0.10015925 -0.033895988 -0.08386106 0.004311623 0.11855268 0.012288878
-0.010712704 -0.12191665 -0.07156232 -0.110534295 -0.0065981084 0.013044078 0.08580201 -0.14804013

lstm.bias_ih_l0 f4 [784]
00000000: 7655 d4be 3f1f 8bbe 14a1 4dbd 40f5 b5be
00000010: bf73 cebc a598 ddbd 6c0b 09be 53cb 273e
00000020: 4e8f f0be da45 c5bd c843 e93d 256a 71be
00000030: bf6a 77be ce82 b63e edbe 0dbf e72a 6abe
00000040: 4f2c 97be 3c1c 03bf 3b0e 8bbe cea5 95bd
00000050: c903 55be f14f db3c 40a6 793e 7323 e83d
00000060: f12e 25be 7367 5bbe dc82 e83c aa2b 01be
00000070: 8954 e8be 725d 5b3c 40c1 04be e297 293e
00000080: 669e 39be a1f6 b6bc 3368 cabd 9be3 e3be
00000090: 8d79 b6be b953 44be 39ad 17be d381 dbbe
000000a0: 94a2 acbc 2349 10bd 67b0 87bd 998e 373e
000000b0: bc0a c7be b11f 043d 0645 51bd e6e2 4cbe
000000c0: 86ba 36bd a934 c73d 8253 d73d 5924 e1be
000000d0: 1b8f 58be 5c5f e23d 7288 35bf e298 31be
000000e0: 8932 4bbe bdd9 03bd 8c59 62be 5a32 0d3e
000000f0: f065 a3bc dfd0 07be 43d0 e9bd 7ef5 f4be
00000100: 7d8d 593e 53f7 883d f2a7 dfbd 37fe 3cbe
00000110: c6ea 243e 072b c1bd 16d9 2fbe ac95 0cbf
00000120: b29e dfbb e1ce b03a 75cc 84bb e6d7 6ebe
00000130: e457 543c 6b5f 35be 8840 71bd 28a4 24be
00000140: 5faa f9bd 684d b8bd 57f4 d6be 2da3 3cbe
00000150: 322b 903d 47dd 89be d428 17be 10ac d6be
00000160: 5b20 48be 92af d73d ca99 eabe a14a 1abd
00000170: 2178 b2be 5917 a3bc 42f8 05be 7d2b 0a3e
00000180: a16b 13be 61c4 76be f996 a3be a3db bebd
00000190: 871c c83c 7a44 90be 0b4c b0be dea5 ef3d
000001a0: 003a 20bd f105 c9bc f10d 0e3d a381 623d
000001b0: a4c7 dfbe df89 c5bd 8c57 123c 7f16 05be
000001c0: ba79 23be f24d 063d bb52 0a3e e6ce 3cbd
000001d0: ac53 36be ef77 05be fd58 5ebd b21c 23bd
000001e0: c252 183e 360c 85bd d1b7 a4bd 948a b9bd
000001f0: 55db b8ba 624f 293d 0b83 5bbe ad96 05bd
00000200: d26b 693d 9c01 c33d 361b 7dbd a727 40be
00000210: 5c20 acbe 8390 16bf a70b 3ebe 93d8 69bc
00000220: aaa4 04bd b6b4 05be b5aa 833d 6242 83bd
00000230: 82b6 44bf 1367 6dbe 933c 9abd 913a 08bf
00000240: acb1 3d3d 64df f3bd 550d 83be feb1 21be
00000250: 9950 ebbe 3f21 933d ee84 78be 3a04 b9bd
00000260: d409 31bd bf66 053c 7ec2 90bd dea4 37be
00000270: 180e 70bf 8e52 4e3d 7250 adbe a1c7 813e
00000280: ae58 50be 5054 003d b900 fe3c f977 403c
00000290: 7a82 51be dbfb 473d 6554 10be b60b 10be
000002a0: 54af e0be 338d e43d 3cde cbbe dd58 03be
000002b0: f0fb 16bf fa2f 61bd bb16 94be 512e 273d
000002c0: 205f ef3d 2513 8fbe e308 2a3d 23cc 583d
000002d0: fd13 d7bd aea4 a23d d7d4 823e c994 fcbc
000002e0: ec2c 90bd 9c06 b5bd 6417 99bd 686d 233e
000002f0: 8b83 36bf ce35 003d f2f7 9fbb ebe9 1ebe
00000300: 82fa 203e 3267 f9be 610b 9c3d 6ad8 09bc
00000310: 7b92 01bf f0a0 10be 5361 fcbd 7d61 c3be
00000320: 009e a6bd f4c1 d8bd 3e15 a2be 9019 3e3d
00000330: 35e0 7abe 4a68 c5be 783b fe3d 7f9c 9dbe
00000340: f354 66be df4c ebbd fb5e fdbe f06c 58be
00000350: 558c a8be 61ab 02bf 8932 01bc 74ad d83c
00000360: 3606 c1bd 84ce 42be 93b1 83be 0756 2a3e
00000370: ad5a 83bd b11b 0dbe 23c4 0c3e 8e4c abbe
00000380: 2d75 d2be e635 debd e06d 3fbe 2597 563e
00000390: 6b7c afbd 8d0f 33bd b0e9 f1bc 706a 9cbe
000003a0: 612b f7be f608 aabe df40 b23d dc51 c5be
000003b0: d257 1a3d 6ebb 3fbd ba3e 98be 7882 3c3d
000003c0: fa5e 04bf ea05 043e d473 a2bb 3a19 3bbe
000003d0: 79e3 fa3b 633f 26be 7235 b83d b290 07bf
000003e0: 1905 81bd 0324 d33d 537a 20bf a046 2fbe
000003f0: 43d9 b0be 6640 563d 4a10 81be 4781 543e
-0.41471452 -0.27172276 -0.050202444 -0.35538673 -0.025201676 -0.1082013 -0.13383263 0.16386156
-0.46984333 -0.09632464 0.11389881 -0.23575647 -0.24161814 0.3564667 -0.55369455 -0.22867928
-0.29525992 -0.5121496 -0.27159294 -0.07307015 -0.20802225 0.026771517 0.24379826 0.113348864
-0.16131188 -0.21426181 0.028382711 -0.12614313 -0.45376995 0.013388978 -0.12964344 0.16561845
-0.1812683 -0.022334399 -0.09883156 -0.44509587 -0.3563961 -0.19172563 -0.14812173 -0.42872486
-0.021073617 -0.035226 -0.06625443 0.1792549 -0.38875377 0.032256786 -0.051091217 -0.2000843
-0.044611476 0.09726841 0.10513975 -0.43973044 -0.2114834 0.110533446 -0.70911324 -0.17343476
-0.19843496 -0.032190073 -0.22104472 0.13788739 -0.019946069 -0.13263272 -0.11416676 -0.47843546
0.2124538 0.06687798 -0.10920705 -0.1845635 0.16105184 -0.09432035 -0.17172655 -0.5491588
-0.006824338 0.0013489389 -0.0040526935 -0.23324546 0.012960408 -0.1771218 -0.058899432 -0.16078246
-0.12190699 -0.08999139 -0.41983292 -0.18421622 0.07039489 -0.26926634 -0.14761668 -0.41928148
-0.19543593 0.10531534 -0.45820457 -0.037668828 -0.34857276 -0.019908594 -0.13082984 0.13493152
-0.14396526 -0.2409835 -0.3195112 -0.09319236 0.024427665 -0.28177243 -0.34433016 0.117015585
-0.039117813 -0.024538966 0.034681264 0.055299412 -0.43707 -0.096454374 0.008932006 -0.12996863
-0.15964404 0.03278918 0.13508122 -0.04609575 -0.17805356 -0.13034032 -0.054284085 -0.039822288
0.1487532 -0.0649647 -0.08042873 -0.09059635 -0.0014103452 0.04133547 -0.21436708 -0.0326144
0.05698759 0.09521791 -0.06179353 -0.18765126 -0.33618438 -0.5881426 -0.18559133 -0.014272827
-0.0323836 -0.13057217 0.06429044 -0.06409146 -0.76840985 -0.23183851 -0.07531085 -0.53214365
0.04631202 -0.11907843 -0.2559611 -0.15790555 -0.4595993 0.071840756 -0.24269459 -0.09034009
-0.043222263 0.008142172 -0.070683464 -0.17933986 -0.93771505 0.0503717 -0.33850437 0.25347617
-0.20346329 0.031330407 0.031006204 0.011747354 -0.20459929 0.048824172 -0.14094694 -0.14066967
-0.43883765 0.11159744 -0.3981799 -0.12826867 -0.58978176 -0.054977395 -0.28923592 0.040815655
0.116880655 -0.27944294 0.04151238 0.052929055 -0.10501859 0.079415664 0.2555301 -0.030832665
-0.07039818 -0.08839151 -0.074751645 0.15959704 -0.7129447 0.031301312 -0.0048818523 -0.1551892
0.15720561 -0.48711544 0.07619358 -0.008413414 -0.50614136 -0.14123893 -0.123232506 -0.38160315
-0.08135605 -0.105838686 -0.31656832 0.046411097 -0.2449959 -0.3855613 0.124136865 -0.3078346
-0.22493343 -0.114892714 -0.49486527 -0.21135306 -0.32919565 -0.51042753 -0.007885584 0.026449896
-0.09425013 -0.19024092 -0.25721416 0.1663438 -0.064137794 -0.13780095 0.13746695 -0.33456844
-0.41105023 -0.10850124 -0.18694258 0.20956095 -0.08568653 -0.043716002 -0.029530376 -0.30549955
-0.48275283 -0.33209962 0.087037794 -0.38539016 0.03768141 -0.046809606 -0.29735357 0.046022862
-0.5170742 0.12892881 -0.0049576554 -0.18271342 0.0076565114 -0.16235118 0.08994569 -0.5295516
-0.062998004 0.10309603 -0.6268665 -0.17116785 -0.34540758 0.05230751 -0.2520774 0.2075244

lstm.bias_hh_l0 f4 [784]
00000000: db79 01bf 961e 8fbe b9e8 c6bd a52a d5be
00000010: 7210 82bd 6910 17be 94bc ddbd a300 bc3d
00000020: a223 e5be 08b6 1dbe 792d d83d e6f5 f0bd
00000030: ac1b aebe 2ef7 993e dea6 00bf 5a3f acbe
00000040: be8c 80be d938 0cbf ee76 a8be 2047 1fbd
00000050: b982 90be 75c4 2abd 37d4 843e 5891 e83d
00000060: ed3d 83be 9c7c 72be fd38 1a3e a88e 31be
00000070: 5c2e 09bf 6857 08bd d37d c2bd b4bd 5d3e
00000080: 9350 4cbe 9f9e 1d3d afd2 8bbc f285 e5be
00000090: e310 cdbe 7368 4bbe c647 2abe 08e3 d0be
000000a0: 7337 c5bd 849b f8bd 2728 ddbd c762 3c3e
000000b0: 2a21 aebe a3ed 553d 8175 c5bd d8b0 a0be
000000c0: 6b59 5a3d 2aac 68bc a27f be3d 2afb 9ebe
000000d0: 91a4 82be 3f20 973d 262f 53bf 0e66 29be
000000e0: d4d9 08be ca9a 97bd 3058 39be eb88 7f3d
000000f0: 10e2 88bd 1394 9abd 7a25 4abc bd36 f2be
00000100: 2bc9 503e e756 d83d e29b bfbd b1e4 06be
00000110: 62ae 2e3e 9b6c 8cbd 76e8 8abe a503 27bf
00000120: 9c78 3a3d 5314 4fbc 75b0 b2bd dab1 77be
00000130: ddd4 393c 88e2 2cbe 8b2b b9bc cc0e 5ebe
00000140: 2053 26be fc47 d3bd f576 a0be 3856 d7bd
00000150: 7e60 a13d 764a b3be 163c 26be d906 c4be
00000160: e93c 30be cdcb 9f3d 374c efbe d90e 10bd
00000170: 9540 a0be 84f6 8dbd fa7c ddbd d02e bc3d
00000180: 049e 4ebd da84 5fbe 0a43 c9be f272 08be
00000190: 0a2a 19bd 212a 74be 62ab bfbe 95a5 793e
000001a0: 4468 a5bd 71dd b5bd 4a39 e8bc 2f03 b13c
000001b0: ed62 e5be 36cd 83bd 5c99 923c fc1d 7dbd
000001c0: d5eb 09be 1277 603d a24d 1f3b 6480 813d
000001d0: b423 10be fe12 22be d5cd 813c ebcf 94bd
000001e0: ddfe 083e 778c 91ba 1891 dabd 7d28 22be
000001f0: de9e 0cbd 3035 a5b9 76d1 0dbe 3ad4 37bc
00000200: d545 f9bc 0c05 e63d ded2 4f3d 0122 0ebe
00000210: c680 adbe 5276 0fbf fd9b b8bd 9fd4 a53d
00000220: 08bb d6b7 9e42 60be e7fc 9d3d e4ee c8bb
00000230: 36d1 46bf b524 86be 4c9d 99bd 22b7 20bf
00000240: e9d1 a83d 3590 70bd 366d 1abe 45ca 8abd
00000250: ac36 dbbe f3db e03d 082b 88be ccc2 4ebb
00000260: 15d9 af3c 6826 7abb b3a7 9abd d9fb cdbd
00000270: c9f3 6bbf 4137 1f3e df26 c4be 2b5e 2d3e
00000280: 6aab 03be 72b0 813d 7285 65bd 9f8a 0bbc
00000290: 534d 25be d36b 103d 9e34 64be 898b 46be
000002a0: 5457 b7be 02ab f73d a98d 88be 2764 0bbe
000002b0: 620a 1bbf a2c0 a3bd d105 21be de4b 233b
000002c0: a250 c43d 6da6 49be 83a1 c63d c172 803d
000002d0: 2374 dabd 362e 413d b1c5 193e 8c5e c1bb
000002e0: 086f abbd 761f ebbd 70cd 253c e197 393d
000002f0: 4290 54bf e21b 44bd e920 1d3d a18f 37be
00000300: 76d2 fa3c 3930 04bf 7eaa a63d f775 4cbd
00000310: b811 f5be bd5e 0dbe 222e 31be e3f6 b7be
00000320: 150c dcbd 40b9 fdbd 9b12 bebe 7786 a9bc
00000330: 9c6d 77be b58e a9be c9e4 323e ca87 7bbe
00000340: 31d3 44be 58d7 65bd cd2b f1be f2e7 85be
00000350: 5840 bdbe 7417 0fbf 6923 28bd b4e4 79bc
00000360: 4055 04be fc8e 13be 053a 71be 0382 5b3e
00000370: 9bd1 b6bb 2052 98bd f2c9 ee3d 77cc adbe
00000380: df6a c4be a313 05be 2b89 5dbe 111d 5a3e
00000390: 09dc b7bd bc32 4a3a c511 0a3d 0741 b6be
000003a0: eaf8 01bf 8530 67be 9028 c3bc 97c6 e0be
000003b0: 89d3 a4bd 5fb3 4fbd 4d31 a4be b795 03bd
000003c0: a623 0cbf d9b4 193e 5a5d a7bd 7f89 72be
000003d0: 417f 813d f068 2cbe b4c7 f53c 8cfe 0bbf
000003e0: cc5b 793d 964a 873d 691e 22bf 9408 f9bd
000003f0: 7e37 91be b8b4 69bd 466f b8be ea64 383e
-0.5057656 -0.27953023 -0.09712357 -0.41634098 -0.06350793 -0.14752354 -0.10826984 0.09179809
-0.44753748 -0.1540147 0.10555548 -0.117656514 -0.34005487 0.30071396 -0.5025462 -0.33642083
-0.25107378 -0.5477424 -0.32903236 -0.03888619 -0.28224733 -0.041691262 0.25943157 0.11355847
-0.25633183 -0.23680347 0.15060802 -0.17339575 -0.53586364 -0.033286482 -0.09496655 0.21654397
-0.19952612 0.03848135 -0.017068235 -0.44828755 -0.40051946 -0.19864063 -0.16628942 -0.4079821
-0.09629717 -0.12139037 -0.10798674 0.18397056 -0.34009677 0.05222858 -0.09641553 -0.3138492
0.053307932 -0.014201203 0.09301688 -0.31050998 -0.2551618 0.07379197 -0.8249382 -0.16542837
-0.13364345 -0.074025705 -0.18100047 0.062386435 -0.06683743 -0.07547774 -0.012338037 -0.47307387
0.2038924 0.1056345 -0.09355904 -0.13173176 0.1705871 -0.06856652 -0.2713048 -0.65239936
0.04552518 -0.012639123 -0.08725063 -0.24188939 0.0113422545 -0.1688329 -0.02260377 -0.21685332
-0.16242647 -0.10316464 -0.31340757 -0.10514492 0.078797325 -0.35017747 -0.16233858 -0.38286474
-0.17210735 0.07802544 -0.46737835 -0.03517041 -0.31299272 -0.06931785 -0.10814853 0.09188616
-0.050443664 -0.21828023 -0.3930896 -0.13325098 -0.037393607 -0.23844196 -0.37435442 0.24379571
-0.08076528 -0.08880127 -0.02834763 0.021607963 -0.44802037 -0.06435625 0.017895393 -0.061796173
-0.13468869 0.054801054 0.0024307747 0.06323317 -0.1407612 -0.15827557 0.015845219 -0.0726622
0.13378473 -0.0011104484 -0.10672206 -0.15835758 -0.034331195 -0.0003151088 -0.13849434 -0.011220032
-0.030428806 0.11231431 0.050738208 -0.13880159 -0.3388731 -0.5603992 -0.090141274 0.08097195
-2.5597881e-05 -0.21900412 0.07714253 -0.0061319936 -0.7766298 -0.2619988 -0.07500705 -0.6277944
0.08243162 -0.058731277 -0.15080723 -0.06776861 -0.4281515 0.10979452 -0.2659533 -0.0031549213
0.021465817 -0.0038169865 -0.07551517 -0.10057802 -0.9216886 0.15548421 -0.38310906 0.16930453
-0.12858358 0.063324824 -0.056035466 -0.008516937 -0.16142778 0.03525908 -0.22285697 -0.19389166
-0.35808814 0.12093164 -0.26670578 -0.13612424 -0.6056272 -0.07995726 -0.15724875 0.0024917047
0.09585692 -0.19692393 0.09698775 0.062718876 -0.106666826 0.04716321 0.1501682 -0.0059011634
-0.08370787 -0.1148061 0.010119781 0.04531086 -0.8303262 -0.047878154 0.038361464 -0.17925884
0.030617934 -0.5163608 0.081379876 -0.049917188 -0.4786508 -0.13805671 -0.17302755 -0.35930547
-0.10744492 -0.12388849 -0.3712357 -0.020694 -0.24162906 -0.3311669 0.17470087 -0.24563518
-0.19221188 -0.05611357 -0.4710373 -0.26153523 -0.36963153 -0.5589516 -0.041049395 -0.015252281
-0.12923145 -0.14410013 -0.23557289 0.21436314 -0.005579186 -0.07437539 0.11659612 -0.33945057
-0.38362786 -0.12995772 -0.21634357 0.2130015 -0.08977515 0.00077132485 0.033708353 -0.35596487
-0.5077044 -0.22577102 -0.023823053 -0.43901512 -0.0804816 -0.05070817 -0.32068864 -0.0321252
-0.54741895 0.15010394 -0.08172102 -0.23685263 0.063231 -0.16836905 0.030002452 -0.5468528
0.06087856 0.06606023 -0.6332765 -0.12159839 -0.2836265 -0.057057112 -0.36022395 0.18007246

linear.weight f4 [6, 196]
00000000: f244 fbbd 7cc3 7cbe a49d 623e 49b1 e5bd
00000010: abcc 903e dd37 e0bd b85d 263d 8802 6fbe
00000020: cc81 b3bd 31c3 fabd e16c 583e b055 e83b
00000030: bd93 713e aff6 97bd 47d2 3d3e c3d1 073e
00000040: 725e 233d 4737 58be b5b0 823e be0b 8bbe
00000050: 0088 82be caa0 523d 1b7b 58be ebec 953e
00000060: 8196 8bbe 003f 17be 7d66 4b3e c647 a43d
00000070: 3c7c 84bd 23ab 73be 07c0 003d f465 433e
00000080: 4984 a13d dbbe 8abe cedc 0b3e 7b5f c1bd
00000090: 4f60 5fbe 10e6 f5bd 4a44 803e 294f a6bb
000000a0: 7675 24be 4080 48be 40e5 0a3e ec1d a93e
000000b0: ef04 d43d f75b b83d e2a1 713e 021e 643e
000000c0: 7b3f 5f3e d977 d83c 576d 8cbe 5314 08be
000000d0: 3a3a 223e 50bd 5fbe 472d 37bc 3ff1 753e
000000e0: b74f f5bd f692 063e d37f 08be 2936 32be
000000f0: a826 0e3e cbf3 2fbe 5d96 183e 9cea 8bbe
00000100: 3aa2 a53e fe43 9f3e a22e 8b3e de80 5f3e
00000110: 0daa 93be ad2d 403e da9f 78be df50 1dbe
00000120: 7a0c 0fbe 7ade 3bbc 7ec5 933d a461 70be
00000130: f0ad ed3d 7ae7 653c 1de9 893e dcad a0be
00000140: 4a09 103e bb79 a6be 3bfe 19be 4b90 ee3d
00000150: 09f3 8dbd f526 84be 98a8 c0bd 7bf9 3c3e
00000160: 2c1f 313e ca98 a03e d7d5 643e 348c 133e
00000170: e8c7 ef3d 336b 573e f43b c2bd 14fd 753e
00000180: 663f 48be 1924 583e fc58 0f3e 32de 4bbe
00000190: a75f 49be 117f 14be 9f01 90bd 7b8c 82be
000001a0: cff8 5dbe 5d0e 3fbe d1ad 293e b012 22be
000001b0: 0c97 2abe 51c1 7c3e 179a 0dbd 791f 7bbe
000001c0: 9622 283e 357c 82be e10f a6be b6bf 323e
000001d0: f857 d1bb d5f6 a3bd cf05 cf3d a81c 69be
000001e0: d92a 813e 5a35 6dbe 6905 9abe 6c46 54be
000001f0: 659d bc3d ab8f a23d a030 08be cbe2 3e3e
00000200: 77af a13e 0445 93be 2da0 b73d a17a 813c
00000210: 3313 92bc 3de0 11be d78c 5e3e 57f9 6a3d
00000220: a273 383e fe9d 0cbd 0c78 fe3d f39e 3a3e
00000230: 5e93 323c 9ad9 653e 1bd6 5d3e aca7 8c3d
00000240: 58df 4a3e ba6d 20be 1df2 5c3d 09c4 d4bd
00000250: 6472 4abe e4fd 053e ea54 a43c 8009 95be
00000260: deb5 5bbe d3b5 5bbe bf33 3f3d a640 87be
00000270: f1f1 c33d 5068 c13d 7a0a 07be f250 ea3d
00000280: 4d36 663e 07d2 bfbc c265 53be 5557 693e
00000290: d30e 80be 93c9 b33e b6cf 47be 917c 70be
000002a0: 5400 e83d fbe6 123e b2bc 7d3d 3e0d 7c3e
000002b0: 2616 1cbe bc44 a1bd e41b 1f3e ee2a 7a3b
000002c0: 897c 87be 5434 18be 3413 153e 78e3 a0bd
000002d0: 7382 573e ede7 e83d f781 1c3e a33a 813e
000002e0: e504 73be dfe7 65be 7b55 193d 105d 26be
000002f0: 0615 a8ba 17a2 78be 463c 86be 27c2 5ebe
00000300: 1f3b 21be 6053 463e 30e1 6dbe a704 383e
00000310: caca 3abe 16c9 fbbd 47dc 1b3e 02a7 2a3e
00000320: 325e 4c3e 97cd 8e3e 001c 85be 33ba 52be
00000330: 8239 35be ca8e 483e 5702 b13d 4ef0 4ebe
00000340: 9fcf 9ebc 5697 63be 4ebd a93a 6647 593d
00000350: 41d7 3e3e d437 71bd bfba 9abd ba0c 483d
00000360: 6b5e eebd 91fe 963e e410 0bbe 4f26 dd3d
00000370: 5f15 28be 29b8 6e3e 249b 883e 313a 733e
00000380: 34a8 5e3e a4d0 333e d4db 823e a1a3 90be
00000390: ed3e 81be ae40 113d f03f 8f3d 3b99 b0bc
000003a0: b840 84bd 168d 6cbe 0bae f73d 329e 403e
000003b0: 16ec 853e 02d3 b2bd de88 79be 7e7d 543e
000003c0: 26f8 813d 1244 98be ea4e be3d cb5c af3d
000003d0: 8845 67be 89e0 8a3e ab6a 6dbd 4974 0f3e
000003e0: 4667 68be a45a 3cbe 4600 1ebe 42db f43d
000003f0: 19b8 2d3e 3d39 9abe 713d 3b3e 6429 31be
-0.1226901 -0.24683946 0.22130448 -0.11215455 0.2828115 -0.10948155 0.04061672 -0.2334081
-0.08764991 -0.12244261 0.21135284 0.007090293 0.23591514 -0.07420098 0.18537246 0.13263611
0.039884992 -0.21114837 0.25525442 -0.27157396 -0.25494385 0.05142287 -0.21140711 0.29282317
-0.27263263 -0.14770126 0.19863315 0.08021502 -0.06469008 -0.23795752 0.03143313 0.19081861
0.078865595 -0.27098736 0.13658449 -0.094420396 -0.21814083 -0.120067716 0.250521 -0.0050753546
-0.16060433 -0.19580173 0.13564014 0.3303064 0.103525035 0.09001916 0.2359691 0.22277072
0.2180156 0.026424335 -0.2742717 -0.13289003 0.15842524 -0.2184956 -0.011180229 0.2401781
-0.11978095 0.13141999 -0.13330011 -0.17403473 0.13881934 -0.17182843 0.14901109 -0.2732743
0.32350332 0.3110656 0.27184016 0.21826503 -0.28840676 0.18767424 -0.24279729 -0.15362881
-0.13969603 -0.011466617 0.07215403 -0.23474747 0.116054416 0.014032239 0.26935664 -0.31382644
0.14066043 -0.32514748 -0.15038387 0.116486154 -0.06931121 -0.25810972 -0.09407157 0.18454544
0.17297047 0.3136657 0.22347198 0.14408952 0.11708051 0.21036987 -0.094840914 0.24022323
-0.19555435 0.2110752 0.13998789 -0.1990898 -0.19665395 -0.14501597 -0.07031559 -0.25497803
-0.21676944 -0.18657823 0.16570212 -0.15827441 -0.16659182 0.2468312 -0.03457078 -0.24523725
0.16419443 -0.25485387 -0.3243399 0.17455944 -0.0063886605 -0.08006064 0.1010853 -0.22764838
0.25228003 -0.23164883 -0.30082253 -0.20729989 0.09209708 0.07937559 -0.13299799 0.18641202
0.31579182 -0.28763592 0.08966098 0.015805544 -0.01783142 -0.14245696 0.21733414 0.057366695
0.1801286 -0.03433036 0.12425241 0.18224697 0.010899393 0.2244629 0.21663706 0.06867918
0.19811761 -0.15666857 0.053941835 -0.10388953 -0.19770199 0.13085133 0.020060021 -0.2910881
-0.21456096 -0.21456079 0.04668021 -0.2641651 0.09567631 0.09443724 -0.1318759 0.1144122
0.22481652 -0.023415579 -0.20644286 0.22787221 -0.2501131 0.35114726 -0.19512829 -0.23485018
0.113281876 0.14345925 0.061947532 0.24614426 -0.15242824 -0.07874438 0.15537983 0.003817256
-0.264622 -0.14863712 0.14558107 -0.07855886 0.21045856 0.11372361 0.15283953 0.2524005
-0.23732336 -0.22451733 0.037435036 -0.16246438 -0.0012823648 -0.24280582 -0.2621786 -0.2175375
-0.15745209 0.19367743 -0.23230433 0.17970525 -0.1824142 -0.122942135 0.15220748 0.16665271
0.19957808 0.27891228 -0.25997925 -0.20578842 -0.17697719 0.1958572 0.086430244 -0.20208856
-0.01938611 -0.22225699 0.0012950094 0.053046606 0.186368 -0.058891132 -0.0755515 0.048840262
-0.116391025 0.29491094 -0.13580662 0.107983224 -0.16414402 0.23312439 0.26680863 0.23752667
0.21743852 0.17560059 0.2555834 -0.2824984 -0.2524332 0.035462074 0.06994617 -0.021557441
-0.064576566 -0.23100695 0.12093743 0.18810347 0.26156682 -0.08731653 -0.24368617 0.20750996
0.06346159 -0.29739434 0.092923954 0.08562621 -0.22585118 0.27124432 -0.057963055 0.14009203
-0.22695646 -0.18393952 -0.15429792 0.119558826 0.16964759 -0.30121794 0.18285157 -0.17300946

linear.bias f4 [6]
00000000: 086e e2bd bbad 193d 5421 d9bd 7acb 383d
00000010: 3434 e3bd 23f6 393d
-0.11056143 0.037519198 -0.1060206 0.045115925 -0.11093941 0.04540075
