model.pt (torch, 630663 bytes, 6 tensors)

lstm.weight_ih_l0 f4 [784, 2]
0.052246403 -0.06567738 -0.01862567 -0.019867968 0.005011294 -0.054941095 -0.078011334 0.043403897
-0.0898257 -0.024829809 0.030487226 -0.111993834 -0.00932762 -0.060413197 0.02724526 0.057202574
0.04676362 -0.04642802 0.034114316 -0.082449906 0.085902296 0.008394747 -0.0471158 -0.08505015
0.08396783 0.030743051 -0.041827627 -0.0027603002 -0.0018137558 0.03955621 -0.015545377 -0.047781333
-0.074643046 0.04415512 -0.0481493 0.019684853 -0.056404974 0.02812266 -0.056490686 0.044912975
-0.007825843 -0.064299144 0.033215187 0.07231938 0.07753131 -0.016098022 -0.028856322 -0.028818076
-0.12006226 -0.052931774 -0.015182071 0.022709563 0.09950072 0.16868976 0.08707451 -0.012590328
-0.14854822 0.02075185 0.10011737 -0.089232154 0.13651398 -0.08294754 0.0445122 0.027764909
-7.520883e-05 0.12541118 0.027266936 0.105904445 0.08647538 -0.1030658 -0.031320427 -0.13567959
0.10985551 0.09836982 0.051268883 0.04747764 -0.020487774 0.050583847 -0.027868215 0.05991853
0.03276032 0.15023534 0.032364633 -0.042913686 -0.0052853795 0.062572695 -0.0569023 0.1572348
0.0025101437 0.06960298 0.083005644 -0.013285884 0.0093837315 -0.01814554 0.030823078 -0.07526689
0.047656287 -0.0031428442 -0.025562739 -0.083535574 0.046859883 -0.07247033 0.10864884 -0.10629618
0.03689045 -0.022572571 -0.0717779 0.07046021 -0.039792385 -0.0073316894 -0.04565733 0.105875835
-0.088594146 0.02211518 0.0062442096 0.08127485 0.048985325 -0.03088903 -0.017371709 -0.015030091
0.03789164 -0.06712997 0.17329694 -0.13093159 -0.02067049 -0.0649483 -0.0071980464 -0.08700409
-0.09953461 -0.07041359 -0.018294541 -0.12540995 -0.037529603 -0.038753808 -0.052342262 0.01954622
0.06696766 0.013454094 0.0162033 -0.03367615 -0.05822653 0.15087768 0.054670565 0.04437752
0.03160927 0.13042909 -0.037322856 -0.05083 0.13293706 -0.10083072 0.06161447 -0.029207312
-0.067450464 -0.027988216 0.011448949 -0.11071102 -0.076840006 0.119706236 0.032424137 0.14498442
-0.09217977 -0.065445416 -0.12302364 -0.121759616 -0.010017897 0.14560038 -0.028965283 0.07055258
0.019503519 0.075871594 -0.041789003 0.045030378 0.122857176 -0.0076546976 -0.010968336 0.14588305
0.01732556 -0.036080547 -0.0087697655 0.0046304357 0.032168422 0.017906133 0.021240564 -0.092973545
-0.09591662 0.07722246 -0.06806825 -0.1048021 0.100542665 -0.10581078 0.021826038 -0.046020858
-0.009219512 -0.037544064 -0.011658364 0.05460993 0.032831553 -0.022313362 -0.004093736 -0.038035028
0.020326635 -0.047627117 0.024798507 0.08608317 -0.049251426 0.008000569 -0.06193358 0.12147362
-0.15134746 -0.0046318085 -0.048876964 -0.007997642 -0.009244872 0.09182552 0.0103601795 0.00085121585
-0.002462709 -0.044277556 0.02336484 -0.09130503 0.099425964 -0.057416484 0.110998884 -0.04328215
0.12100679 0.025355091 -0.11790923 -0.02648199 0.100814596 -0.09197719 -0.017543908 -0.04833513
0.014678232 0.012789968 -0.06930842 -0.15700358 -0.03382719 -0.01052557 -0.07151035 0.048061155
0.014599142 0.0043281233 -0.06390741 -0.07218079 0.013957948 0.02687796 -0.058695037 -0.045266252
-0.14268409 0.19830114 -0.08932073 -0.048567988 -0.0007010988 0.001971836 0.103450134 -0.11044209
00000000: 5300 563d dd81 86bd dc94 98bc 26c2 a2bc
00000010: c835 a43b ea09 61bd 68c4 9fbd 49c8 313d
00000020: 89f6 b7bd e267 cbbc 59c0 f93c 065d e5bd
00000030: e0d2 18bc d473 77bd 7431 df3c 3f4d 6a3d
00000040: 368b 3f3d 4f2b 3ebd 74bb 0b3d 7fdb a8bd
00000050: 8bed af3d 1f8a 093c 7ffc 40bd c62e aebd
00000060: 53f7 ab3d dad8 fb3c 7253 2bbd 27e6 34bb
00000070: 8cbb edba b105 223d 09b2 7ebc 5cb6 43bd
00000080: 74de 98bd 00dc 343d 3338 45bd 2142 a13c
00000090: e708 67bd 7e61 e63c c762 67bd abf6 373d
000000a0: f737 00bc 45af 83bd a60c 083d 2f1c 943d
000000b0: bcc8 9e3d 00e0 83bc 1864 ecbc e313 ecbc
000000c0: 34e3 f5bd fdce 58bd 39be 78bc 6809 ba3c
000000d0: 09c7 cb3d 02bd 2c3e 1f54 b23d aa47 4ebc
000000e0: 061d 18be c9ff a93c 560a cd3d 59bf b6bd
000000f0: 52ca 0b3e 66e0 a9bd 6d52 363d 3c73 e33c
00000100: 6fb9 9db8 ca6b 003e e95e df3c 6ee4 d83d
00000110: 011a b13d 2a14 d3bd d949 00bd 97ef 0abe
00000120: edfb e03d 1e76 c93d 52ff 513d ea77 423d
00000130: fad5 a7bc 0231 4f3d e24b e4bc 226d 753d
00000140: af2f 063d 4bd7 193e c790 043d 43c6 2fbd
00000150: fa30 adbb 1d26 803d 6312 69bd 2902 213e
00000160: 3981 243b 028c 8e3d ddfe a93d 09ad 59bc
00000170: 39be 193c f5a5 94bc ae80 fc3c 8725 9abd
00000180: 3d33 433d 2df8 4dbb f368 d1bc b314 abbd
00000190: 26f0 3f3d 536b 94bd 4883 de3d d0b1 d9bd
000001a0: 711a 173d 1dea b8bc 4b00 93bd 714d 903d
000001b0: 57fd 22bd ab3e f0bb 2e03 3bbd 6ed5 d83d
000001c0: d970 b5bd e52a b53c 3a9c cc3b 6e73 a63d
000001d0: d6a4 483d fe0a fdbc 1d4f 8ebc c540 76bc
000001e0: 4434 1b3d 707b 89bd c174 313e ee12 06be
000001f0: 2955 a9bc 9d03 85bd 97dd ebbb 332f b2bd
00000200: cdd8 cbbd 0035 90bd 6fde 95bc 776b 00be
00000210: a4b8 19bd 50bc 1ebd d764 56bd 651f a03c
00000220: 5726 893d 8f6e 5c3c c8bc 843c 01f0 09bd
00000230: f17e 6ebd ae7f 1a3e 3eee 5f3d 34c5 353d
00000240: b978 013d 348f 053e dadf 18bd 1e33 50bd
00000250: a720 083e 5680 cebd 745f 7c3d 2c44 efbc
00000260: 7823 8abd 8b47 e5bc 5f94 3b3c 76bc e2bd
00000270: 4b5e 9dbd 8b28 f53d 2ccf 043d cc76 143e
00000280: bfc8 bcbd 3f08 86bd d1f3 fbbd 1b5d f9bd
00000290: 1b22 24bc 4418 153e 9a48 edbc df7d 903d
000002a0: d8c5 9f3c 9162 9b3d f22a 2bbd c671 383d
000002b0: 8b9c fb3d 42d4 fabb 89b4 33bc 5e62 153e
000002c0: 55ee 8d3c 32c9 13bd 10af 0fbc e9ba 973b
000002d0: 09c3 033d e2af 923c b100 ae3c ea68 bebd
000002e0: ef6f c4bd cf26 9e3d 5e67 8bbd 7ca2 d6bd
000002f0: 50e9 cd3d 52b3 d8bd 85cc b23c 5e80 3cbd
00000300: 700d 17bc cec7 19bd b902 3fbc a9ae 5f3d
00000310: 617a 063d 83ca b6bc bf24 86bb 9eca 1bbd
00000320: 0b84 a63c a714 43bd 3d26 cb3c 5f4c b03d
00000330: ddbb 49bd d214 033c 11ae 7dbd 29c7 f83d
00000340: d4fa 1abe 6dc6 97bb 3633 48bd 8b08 03bc
00000350: ce77 17bc 050f bc3d bebd 293c 2124 5f3a
00000360: 6765 21bb 625c 35bd 9f67 bf3c 22fe babd
00000370: d79f cb3d 8c2d 6bbd 6253 e33d a048 31bd
00000380: 68d2 f73d 7bb5 cf3c 657a f1bd c2f0 d8bc
00000390: e277 ce3d 895e bcbd 3eb8 8fbc 0ffb 45bd
000003a0: f87c 703c 048d 513c 93f1 8dbd 8cc5 20be
000003b0: 618e 0abd 7173 2cbc 0574 92bd c6db 443d
000003c0: 3d31 6f3c eed2 8d3b e3e1 82bd 86d3 93bd
000003d0: e1af 643c 2b2f dc3c 356a 70bd 1b69 39bd
000003e0: c71b 12be 740f 4b3e c9ed b6bd 3aef 46bd
000003f0: f2c9 37ba eb39 013b aadd d33d 762f e2bd

lstm.weight_hh_l0 f4 [784, 196]
-0.038959153 0.03948997 -0.039139036 -0.051643208 0.0027650201 -0.02606142 0.10408724 -0.0017482651
-0.031172171 -0.016158782 -0.016429689 0.024555104 -0.002871354 0.02915785 -0.0004848302 -0.030433405
-0.052524302 -0.03740271 0.029279754 -0.07687128 -0.035394885 0.046537068 -0.011799807 -0.032273374
-0.048035458 -0.010262054 -0.00579976 -0.03146037 -0.010349718 -0.06472218 -0.0042842585 -0.02880842
-0.08560291 0.10308415 -0.054723352 0.0381404 -0.03414436 0.0011423649 0.02513952 -0.033336602
-0.08048205 0.04259788 -0.018855264 0.019700155 0.011776668 -0.05333069 -0.0658945 -0.0070030987
0.0074710883 0.014153469 -0.025536524 0.06184789 -0.021444537 0.0053207255 -0.0127380425 -0.11241298
-0.018247996 -0.0054304427 0.04028236 0.068222366 -0.030563165 -0.003044675 0.11453895 0.12712395
-0.012859237 0.0046079215 -0.07567496 0.06868852 0.0045214044 0.0062268283 -0.04828389 0.028670564
0.025087943 0.08336184 -0.07919248 0.047527008 -0.027010174 0.07350074 0.047975995 -0.012990747
0.046641335 -0.06034186 0.01813423 0.06565492 0.04747369 0.0031987515 0.07700248 0.02912131
0.100991994 0.07799906 -0.01584373 -0.0394733 0.05768964 0.012687995 -0.01578723 0.0074281516
0.022606628 0.09693447 0.058503088 -0.052553445 -0.07377521 0.03813584 0.041986194 -0.013412949
0.009684274 -0.0484218 0.09822189 0.002553925 -0.09992788 -0.10501858 -0.048798554 -0.09853224
-0.10472851 -0.070016325 0.08786943 -0.02389451 0.08642629 0.0066283033 -0.08376308 0.027841682
0.0047996165 -0.018156812 -0.072166525 -0.02825194 -0.06666553 0.0038528494 0.03019903 -0.034861676
0.011710642 0.025086403 0.07574693 0.047849856 -0.022943147 -0.043541554 -0.0009537004 -0.053250205
-0.050377797 0.06273622 0.03974449 0.03804194 -0.06910122 -0.034469616 -0.058469027 0.07917108
0.054305527 0.03711203 -0.046405554 0.08528153 -0.09346655 0.016316695 0.01897978 0.029780533
0.099014714 -0.03338664 0.021575779 0.04542648 0.039818473 0.04405007 0.013480767 0.017037706
0.026097173 0.058288246 -0.011505365 0.013645622 0.070425764 0.035030037 0.035162836 0.094086796
0.083211064 0.13262986 0.09175152 0.054174002 0.006445172 -0.0699719 -0.10300287 -0.0024174256
0.015709532 0.026023861 -0.027455142 0.019308435 0.035544053 0.062439296 -0.029013 0.11442817
0.002828081 -0.026315093 -0.03652834 0.10471163 -0.052916765 0.07964161 -0.0012228965 0.04093664
-0.07044566 -0.0048996843 0.027825167 -0.029759502 -0.07494348 -0.049665466 -0.01766715 -0.04610125
-0.029337678 0.0017491371 0.04909974 -0.016870817 -0.104724854 0.060611892 -0.013499097 -0.0848935
0.0049959254 -0.041473385 0.02017497 0.06086281 0.036263127 -0.010306205 0.039217386 -0.03407048
0.051819984 -0.026169026 0.022693476 0.027278036 0.06844617 -0.06540651 0.04771269 -0.114103876
-0.034764387 -0.047623876 -0.024446815 -0.02125959 -0.058106493 -0.022707433 0.09476197 -0.06503026
-0.00884121 0.05296165 0.026937598 0.05794566 -0.05022684 -0.072645485 -0.018297967 0.06345895
-0.013142641 -0.06667868 -0.03691585 -0.013654119 0.054240193 -0.039255805 0.020399034 -0.010228269
-0.06443811 0.022031039 -0.02565148 0.004437391 0.04811657 -0.012995181 -0.03416968 -0.0014777204
00000000: a293 1fbd 3cc0 213d 4150 20bd d487 53bd
00000010: 5735 353b c27e d5bc b12b d53d 0b26 e5ba
00000020: c85c ffbc 6c5f 84bc 8e97 86bc c927 c93c
00000030: 542d 3cbb 72dc ee3c cf30 feb9 7a4f f9bc
00000040: b923 57bd 9633 19bd 18dc ef3c b16e 9dbd
00000050: 3afa 10bd a79d 3e3d fa53 41bc 1631 04bd
00000060: d4c0 44bd 2d22 28bc ea0b bebb 97dc 00bd
00000070: dd91 29bc 108d 84bd f762 8cbb a3ff ebbc
00000080: 9450 afbd c81d d33d 9825 60bd 1c39 1c3d
00000090: f5da 0bbd 68bb 953a 65f1 cd3c f68b 08bd
000000a0: c6d3 a4bd 1d7b 2e3d 5b76 9abc 3862 a13c
000000b0: edf2 403c 4871 5abd b2f3 86bd 407a e5bb
000000c0: 08d0 f43b f4e3 673c f931 d1bc 3754 7d3d
000000d0: 74ac afbc 7b59 ae3b 39b3 50bc c738 e6bd
000000e0: d27c 95bc dbf1 b1bb 1eff 243d 2bb8 8b3d
000000f0: 9a5f fabc 2c89 47bb 6693 ea3d c82c 023e
00000100: 8daf 52bc 0cfe 963b 79fb 9abd 91ac 8c3d
00000110: 4a28 943b 6c0a cc3b 54c5 45bd 88de ea3c
00000120: 3b85 cd3c 9db9 aa3d ab2f a2bd aeab 423d
00000130: 7144 ddbc 8e87 963d 7a82 443d 24d7 54bc
00000140: fc0a 3f3d 0729 77bd 3d8e 943c 1676 863d
00000150: c673 423d 25a2 513b 7ab3 9d3d d08f ee3c
00000160: e4d4 ce3d f9bd 9f3d b6ca 81bc c1ae 21bd
00000170: f94b 6c3d 4fe1 4f3c 3954 81bc da67 f33b
00000180: 8931 b93c 9485 c63d efa0 6f3d 4842 57bd
00000190: 7517 97bd 5434 1c3d b7f9 2b3d fcc1 5bbc
000001a0: caaa 1e3c f055 46bd 8f28 c93d c05f 273b
000001b0: fda6 ccbd fb13 d7bd fee0 47bd 45cb c9bd
000001c0: e77b d6bd b864 8fbd e3f4 b33d 6bbe c3bc
000001d0: 4400 b13d 3d32 d93b fa8b abbd 3d14 e43c
000001e0: 1a46 9d3b 98bd 94bc 0bcc 93bd 9d70 e7bc
000001f0: f087 88bd 1680 7c3b f563 f73c 1ecb 0ebd
00000200: fedd 3f3c 0082 cd3c 3521 9b3d 36fe 433d
00000210: 44f3 bbbc a158 32bd c001 7aba e31c 5abd
00000220: f358 4ebd d97b 803d 1ecb 223d ded1 1b3d
00000230: f184 8dbd 0330 0dbd 387d 6fbd 7224 a23d
00000240: 796f 5e3d c902 183d c013 3ebd 15a8 ae3d
00000250: 646b bfbd 97aa 853c 7c7b 9b3c 4ef6 f33c
00000260: 3ac8 ca3d 6ec0 08bd b0bf b03c 1e11 3a3d
00000270: b218 233d d96d 343d 6fde 5c3c a992 8b3c
00000280: bdc9 d53c a8bf 6e3d 0081 3cbc e391 5f3c
00000290: 623b 903d a87b 0f3d e806 103d 94b0 c03d
000002a0: 906a aa3d 1fd0 073e 39e8 bb3d 8fe5 5d3d
000002b0: 0532 d33b 6d4d 8fbd 2bf3 d2bd ac6d 1ebb
000002c0: 47b1 803c fe2f d53c 9be9 e0bc b92c 9e3c
000002d0: a496 113d 59c0 7f3d acac edbc 5159 ea3d
000002e0: 5357 393b c092 d7bc be9e 15bd 0d73 d63d
000002f0: 40bf 58bd 241b a33d 9949 a0ba 2ead 273d
00000300: d045 90bd 888d a0bb 9bf1 e33c 33ca f3bc
00000310: f87b 99bd 046e 4bbd b3ba 90bc aad4 3cbd
00000320: 9255 f0bc 4d43 e53a cf1c 493d ab34 8abc
00000330: fc79 d6bd 2d44 783d 512b 5dbc a5dc adbd
00000340: dcb4 a33b ffdf 29bd fb45 a53c 484b 793d
00000350: a588 143d 5bdb 28bc 69a2 203d 7d8d 0bbd
00000360: 3141 543d 6d60 d6bc abe7 b93c 3076 df3c
00000370: 812d 8c3d d9f3 85bd 626e 433d 4baf e9bd
00000380: 1a65 0ebd 4111 43bd b044 c8bc 9728 aebc
00000390: 1301 6ebd f004 babc 9012 c23d 962e 85bd
000003a0: b9da 10bc 51ee 583d 3dac dc3c 6e58 6d3d
000003b0: a9ba 4dbd 28c7 94bd 9ee5 95bc c4f6 813d
000003c0: 3b54 57bc d58e 88bd 1335 17bd 87b5 5fbc
000003d0: f72a 5e3d b2ca 20bd e01b a73c 7894 27bc
000003e0: 21f8 83bd 707a b43c 0d23 d2bc 8967 913b
000003f0: e115 453d bde9 54bc 82f5 0bbd 12b0 c1ba

lstm.bias_ih_l0 f4 [784]
-0.053888205 -0.029357806 -1.0993491 -0.025627825 0.0029548355 -0.32698378 -0.3525788 -1.0347573
-0.108662955 0.006188921 -1.2517751 -1.191566 -0.44707552 -0.46245742 -1.0709897 -1.1478658
-0.081238076 -0.022689035 0.097678065 -0.19641759 -0.2446384 -0.107305095 -0.08636267 -0.6550895
-0.101356044 -0.9162458 -0.1769209 -0.5869332 -0.09997175 -0.45599282 0.10248267 -1.0901289
0.009137276 -0.21519181 0.07715289 -0.22299832 -0.20659879 0.010240392 -0.23585117 -0.5975741
0.22177334 -0.19613323 0.003497738 -0.060111754 0.033985183 -0.58456546 -0.4821798 -0.12827253
-0.8213734 -0.31677356 -0.30434042 -0.9603804 -1.2852293 -0.397625 -0.3969364 -0.09026366
0.11922515 -0.050622374 -0.65395397 -0.3252868 -0.031260498 -0.15858944 -0.21794257 -0.55163205
-0.01409225 -0.38865304 -0.70600086 0.16819896 -1.2199773 -1.0524814 -0.036014713 0.07574007
-0.2137279 -0.1949927 -0.6378638 0.21306147 -0.6537432 -0.06709353 -0.20148008 0.059481412
-0.06166133 0.0096622035 -0.04637828 0.14810453 0.18640353 0.29043114 -1.2021993 -0.23026487
-0.19533657 0.054333836 -0.1646777 -0.34638572 -0.050954152 -0.19748007 -0.2323089 -0.76371604
-0.04202692 -0.0071090152 0.15737745 -0.053962816 -0.09747333 -0.8371035 -0.25450343 -0.1636533
-0.26830855 -0.19719434 -0.5924405 -0.68107396 -0.3006346 -0.2881099 -0.1502204 -0.90166867
-0.9563231 -0.8472342 -0.45015806 -0.6975109 0.059899658 0.3851712 0.09956583 0.050239768
-0.20338012 -0.035996795 -0.116981514 0.23190744 -0.20039557 -0.00085842557 0.088296905 -0.37257752
-0.54989624 -0.18704513 -0.07116754 -0.22889253 -0.20264143 -0.6024651 -0.3849213 -0.82033414
0.053411696 -1.3400736 0.09823523 -0.10054607 0.08077851 -0.026139729 -0.40138024 0.042277947
-0.0999559 -0.06602681 -0.0884581 -0.9133911 -0.52307177 0.054552227 -1.0010396 -0.13946334
-0.042836927 -0.09866177 -0.0721573 -0.10703959 -0.29663846 -0.1935911 -0.6642517 -0.13578455
-0.102566645 0.17429091 -0.2239472 -0.063000694 -0.083657004 0.0772309 -0.07405415 -0.011528137
-0.1265616 -0.22528708 -0.22851506 -1.190926 -0.22395757 -0.58354867 0.07895556 0.14179859
-0.06379854 -0.4571525 0.012202552 -0.16518548 -0.99360096 -0.017748037 -0.102168456 -0.0672328
0.13432166 -0.8836492 -0.8768758 -0.11087437 -0.107794054 0.08307489 0.085559495 -0.071003966
0.13286303 -0.023321278 -0.15554048 -0.3726826 0.07600737 0.07918661 -0.7767962 0.13291097
-0.0060372935 -0.14722256 -0.12070261 -0.7862097 0.073098265 0.078855656 -0.7464503 -0.81854725
-0.31680462 -0.22334044 -0.8423833 -0.7705466 -0.016644336 0.22798525 0.23032063 -0.1380841
-0.05145952 -0.1607972 0.012555713 -0.25392482 0.042854153 -0.54448533 -0.05973885 -0.34093663
0.0076270434 -0.17648405 -0.0065364637 -0.67322314 -0.03582409 0.022728417 0.010491556 -0.056864083
-0.19286382 0.23418872 0.041623436 -0.2809693 0.32733756 -0.116745934 -0.054834183 0.04809724
0.15168351 -0.30488127 -0.4111175 -0.01826514 -0.3049599 -0.18423063 -0.09919472 -0.4699
-0.88466984 -0.16728006 -0.12423287 0.01717029 0.046311427 0.048821773 -0.3207643 -0.11499454
00000000: e1b9 5cbd c87f f0bc 79b7 8cbf 72f1 d1bc
00000010: eaa5 413b 6b6a a7be 3585 b4be ed72 84bf
00000020: af8a debd 6fcc ca3b 2b3a a0bf 3c85 98bf
00000030: 15e7 e4be 38c7 ecbe 3116 89bf 44ed 92bf
00000040: 2660 a6bd 5bde b9bc 700b c83d b121 49be
00000050: 7d82 7abe c6c2 dbbd e9de b0bd f2b3 27bf
00000060: c293 cfbd 168f 6abf c12a 35be 4141 16bf
00000070: fdbd ccbd e477 e9be 6fe2 d13d 5889 8bbf
00000080: 83b4 153c 3e5b 5cbe 5602 9e3d ac59 64be
00000090: a28e 53be 51c7 273c f882 71be 9efa 18bf
000000a0: 8d18 633e 26d7 48be 4e3a 653b be37 76bd
000000b0: 0c34 0b3d 15a6 15bf 45e0 f6be e059 03be
000000c0: 8745 52bf 2530 a2be 82d2 9bbe 7ddb 75bf
000000d0: 6582 a4bf 8195 cbbe 3f3b cbbe 27dc b8bd
000000e0: 512c f43d 6859 4fbd 8769 27bf fe8b a6be
000000f0: 020b 00bd 4565 22be 562c 5fbe c237 0dbf
00000100: 2ee3 66bc 88fd c6be 79bc 34bf 593c 2c3e
00000110: 3728 9cbf b6b7 86bf 2a84 13bd 9c1d 9b3d
00000120: 7ddb 5abe 2bac 47be 0b4b 23bf c92c 5a3e
00000130: b75b 27bf 5568 89bd cb50 4ebe c8a2 733d
00000140: 9790 7cbd 384e 1e3c 27f7 3dbd b7a8 173e
00000150: 91e0 3e3e 64b3 943e abe1 99bf 8eca 6bbe
00000160: 4f06 48be 288d 5e3d 45a1 28be 7859 b1be
00000170: 4db5 50bd 3738 4abe 62e2 6dbe e582 43bf
00000180: 6b24 2cbd bef2 e8bb 8e27 213e 1d08 5dbd
00000190: 19a0 c7bd 6a4c 56bf 464e 82be bb94 27be
000001a0: bd5f 89be 50ed 49be 2eaa 17bf dd5a 2ebf
000001b0: c7ec 99be 2483 93be 60d3 19be c2d3 66bf
000001c0: 97d1 74bf 57e4 58bf 1e7b e6be 1390 32bf
000001d0: 5859 753d 2935 c53e 2be9 cb3d 37c8 4d3d
000001e0: e142 50be 6071 13bd 0194 efbd 2579 6d3e
000001f0: 7f34 4dbe f707 61ba 02d5 b43d 7bc2 bebe
00000200: 00c6 0cbf c288 3fbe 4ac0 91bd ce62 6abe
00000210: 3c81 4fbe 273b 1abf 6814 c5be 6b01 52bf
00000220: 39c6 5a3d 8887 abbf 8d2f c93d 19eb cdbd
00000230: 346f a53d fc22 d6bc b681 cdbe a42b 2d3d
00000240: aeb5 ccbd 1039 87bd 8529 b5bd 00d4 69bf
00000250: 08e8 05bf 2872 5f3d 1122 80bf 7acf 0ebe
00000260: c675 2fbd 2f0f cabd 35c7 93bd 9337 dbbd
00000270: ffe0 97be bf3c 46be 660c 2abf 1b0b 0bbe
00000280: 760e d2bd 5179 323e 6a52 65be 8206 81bd
00000290: 5d54 abbd 3c2b 9e3d b4a9 97bd 83e0 3cbc
000002a0: 5d99 01be a8b1 66be daff 69be 4370 98bf
000002b0: 2255 65be 7263 15bf 74b3 a13d a633 113e
000002c0: cfa8 82bd e40f eabe 36ed 473c 6226 29be
000002d0: a25c 7ebf 5564 91bc b23d d1bd 5ab1 89bd
000002e0: 9e8b 093e d536 62bf ef7a 60bf 1a12 e3bd
000002f0: 21c3 dcbd 2b23 aa3d d139 af3d 876a 91bd
00000300: 3f0d 083e 440c bfbc 0146 1fbe 41d0 bebe
00000310: c1a9 9b3d 972c a23d 1edc 46bf d019 083e
00000320: 7dd4 c5bb 83c1 16be ee32 f7bd 0a45 49bf
00000330: 8bb4 953d 137f a13d 5e17 3fbf 508c 51bf
00000340: 3734 a2be 5bb3 64be 6fa6 57bf 8b42 45bf
00000350: b459 88bc f774 693e 2cd9 6b3e eb65 0dbe
00000360: 38c7 52bd 05a8 24be 7ab6 4d3c 6f02 82be
00000370: d687 2f3d 6463 0bbf b9b0 74bd 3f8f aebe
00000380: 47ec f93b 3cb8 34be d52f d6bb 5a58 2cbf
00000390: 48bc 12bd f230 ba3c c6e4 2b3c 50ea 68bd
000003a0: 187e 45be 2bcf 6f3e 567d 2a3d 35db 8fbe
000003b0: ca98 a73e 7e18 efbd cf99 60bd 9d01 453d
000003c0: ec52 1b3e 6619 9cbe fe7d d2be c6a0 95bc
000003d0: b423 9cbe f4a6 3cbe 9a26 cbbd bc96 f0be
000003e0: b979 62bf 774b 2bbe ce6d febd b5a8 8c3c
000003f0: 0db1 3d3d 57f9 473d 383b a4be 4282 ebbd

lstm.bias_hh_l0 f4 [784]
-0.06734425 -0.03595905 -1.059897 -0.05207507 -0.024341542 -0.2598142 -0.36199284 -1.0036614
-0.16323751 -0.021907194 -1.2351757 -1.0926752 -0.47024643 -0.46600184 -1.1045781 -1.0798862
-0.097826965 0.063731864 0.034670178 -0.2372461 -0.34515372 -0.10195945 0.010568592 -0.6489942
-0.09368112 -0.9965817 -0.13531496 -0.54818577 -0.12394921 -0.380347 0.08704214 -1.0787126
-0.03971112 -0.21777411 0.054622136 -0.21738532 -0.20954818 -0.02632555 -0.18616186 -0.6274331
0.19424751 -0.14383537 -0.0025875769 -0.08555878 0.024655154 -0.60956746 -0.4116402 -0.12541217
-0.8161971 -0.27669877 -0.1708947 -0.91628075 -1.1939716 -0.37734935 -0.3383337 -0.04766972
0.13508636 0.04413065 -0.7530141 -0.36416438 -0.055915058 -0.17522687 -0.17589253 -0.4729536
-0.02609255 -0.37832424 -0.6495083 0.1124012 -1.2998109 -1.0500567 -0.03161313 -0.017200781
-0.15652885 -0.14837223 -0.70467806 0.2591264 -0.6946511 -0.06988126 -0.17567872 -0.039128054
-0.088575214 -0.08501159 0.009278315 0.10235409 0.18921156 0.2892482 -1.1435144 -0.25802794
-0.25980082 0.023731107 -0.0957945 -0.30959442 -0.04501693 -0.22418985 -0.3224525 -0.6737407
-0.10544113 -0.012130257 0.14482303 0.047928702 -0.14759278 -0.75825894 -0.2696158 -0.14680043
-0.19835077 -0.22733942 -0.6645582 -0.6812561 -0.2086166 -0.4179822 -0.16542321 -1.0045241
-1.0769246 -0.7353689 -0.42991817 -0.66780627 0.09336858 0.3244221 0.0928235 0.07809834
-0.12803604 -0.1325639 -0.08496194 0.21575615 -0.11489137 0.046383567 0.15081139 -0.32078218
-0.57627124 -0.13439345 -0.06486089 -0.27663115 -0.23576361 -0.6722389 -0.31871358 -0.8357156
0.0245805 -1.2566357 0.11989038 -0.08215208 0.10547238 -0.09082629 -0.40081975 0.021979857
-0.10976068 -0.056621086 -0.12870179 -0.86264896 -0.43979883 0.040162817 -1.0047141 -0.1637687
0.013297325 -0.11360756 -0.060303807 -0.07278201 -0.29244885 -0.16909559 -0.6288131 -0.07270239
-0.064504884 0.054233782 -0.19260184 -0.046216518 -0.10099079 0.0016416226 0.039341822 0.048946925
-0.002619154 -0.23589717 -0.18700504 -1.0851511 -0.2471716 -0.5728698 0.105131924 0.085424066
-0.08469268 -0.41092542 -0.055985287 -0.06877601 -0.94679415 0.08469263 -0.16809759 0.013253747
0.22779799 -0.8618805 -0.94664705 -0.07841578 -0.15166289 -0.0061818445 0.096650444 -0.05669493
0.17179827 0.027230186 -0.24770704 -0.33050522 0.07138602 0.042346653 -0.8101313 0.14035286
-0.0046680365 -0.13870303 -0.10245835 -0.7334962 0.06359765 0.00852204 -0.7799849 -0.9414669
-0.28183556 -0.18997747 -0.78765213 -0.7721106 0.04589123 0.20656995 0.1580433 -0.21138442
-0.13030595 -0.13431136 -0.04227134 -0.2398003 0.05185013 -0.5513302 -0.09854264 -0.28010702
0.014697123 -0.20986007 -0.07467739 -0.64972365 -0.022573933 0.023871675 0.017685598 -0.07825339
-0.07817139 0.22665884 0.08796784 -0.27724215 0.2013707 -0.061824948 0.022752728 -0.047762435
0.078857474 -0.26701725 -0.38645664 -0.08666847 -0.25643367 -0.18051541 0.017260168 -0.38025743
-0.8143473 -0.25862095 -0.04577436 0.015148433 0.06740108 0.1051716 -0.36014614 -0.10216952
00000000: c8eb 89bd cc49 13bd b4aa 87bf ab4c 55bd
00000010: ea67 c7bc 5e06 85be 2057 b9be fa77 80bf
00000020: bc27 27be b776 b3bc 3d1a 9ebf c8dc 8bbf
00000030: 24c4 f0be cb97 eebe d162 8dbf b639 8abf
00000040: 8159 c8bd da85 823d 5102 0e3d a4f0 72be
00000050: fdb7 b0be 1ed0 d0bd e327 2d3c 7c24 26bf
00000060: e3db bfbd fa1f 7fbf 0190 0abe e755 0cbf
00000070: 15d9 fdbd d8bc c2be 2643 b23d 4113 8abf
00000080: 21a8 22bd 2d00 5fbe 76bb 5f3d 429a 5ebe
00000090: cc93 56be aea8 d7bc 37a1 3ebe 759f 20bf
000000a0: d2e8 463e 9449 13be 5694 29bb 7139 afbd
000000b0: 9bf9 c93c 9d0c 1cbf 81c2 d2be 0c6c 00be
000000c0: 4bf2 50bf 76ab 8dbe 05ff 2ebe 6091 6abf
000000d0: 10d4 98bf ef33 c1be 133a adbe 5341 43bd
000000e0: 1454 0a3e 57c2 343d 88c5 40bf c173 babe
000000f0: 3007 65bd ac6e 33be 2c1d 34be f926 f2be
00000100: 0bc0 d5bc b7b3 c1be 2d46 26bf 9a32 e63d
00000110: 3460 a6bf 4268 86bf c57c 01bd a7e8 8cbc
00000120: 1949 20be e4ee 17be c865 34bf 37ac 843e
00000130: a8d4 31bf e81d 8fbd 1fe5 33be bd44 20bd
00000140: ec66 b5bd 8e1a aebd 1304 183c 059f d13d
00000150: adc0 413e 5718 943e ae5e 92bf 3d1c 84be
00000160: 9d04 85be bd67 c23c e82f c4bd 2983 9ebe
00000170: ac63 38bd 0692 65be 7e18 a5be 457a 2cbf
00000180: 85f1 d7bd fcbd 46bc 7d4c 143e e350 443d
00000190: 9022 17be 421d 42bf 150b 8abe da52 16be
000001a0: 771c 4bbe aacb 68be 7c20 2abf cd66 2ebf
000001b0: 979f 55be c301 d6be b464 29be 3f94 80bf
000001c0: aad8 89bf 2341 3cbf 3c1e dcbe 5af5 2abf
000001d0: 0738 bf3d a71a a63e 3f1a be3d 06f2 9f3d
000001e0: e11b 03be d5be 07be 8700 aebd 2eef 5c3e
000001f0: 2b4c ebbd b2fc 3d3d 4d6e 1a3e 903d a4be
00000200: 8386 13bf 709e 09be c9d5 84bd 99a2 8dbe
00000210: 046c 71be d917 2cbf 6d2e a3be 75f1 55bf
00000220: 0b5d c93c 70d9 a0bf 1689 f53d 5a3f a8bd
00000230: e701 d83d 2203 babd 3f38 cdbe 1a0f b43c
00000240: 35ca e0bd 83eb 67bd 67ca 03be 90d6 5cbf
00000250: 502d e1be c481 243d 799a 80bf fbb2 27be
00000260: 06dd 593c 15ab e8bd 2001 77bd bc0e 95bd
00000270: dbbb 95be 6527 2dbe e5f9 20bf fee4 94bd
00000280: 231b 84bd 3e24 5e3d 6b39 45be 884d 3dbd
00000290: 42d4 cebd b72b d73a e424 213d 927c 483d
000002a0: 1da6 2bbb 078f 71be 407e 3fbe 3be6 8abf
000002b0: 8d1a 7dbe 98a7 12bf 684f d73d d0f2 ae3d
000002c0: 5b73 adbd d164 d2be d450 65bd 70da 8cbd
000002d0: 1a61 72bf 5473 ad3d c621 2cbe 3e26 593c
000002e0: e043 693e 33a4 5cbf 7657 72bf 7498 a0bd
000002f0: 844d 1bbe 1291 cabb abf0 c53d f138 68bd
00000300: e3eb 2f3e d711 df3c eaa6 7dbe fb37 a9be
00000310: d532 923d af73 2d3d c464 4fbf a9b8 0f3e
00000320: 54f6 98bb 2b08 0ebe afd5 d1bd 68c6 3bbf
00000330: 7c3f 823d 07a0 0b3c 17ad 47bf fa03 71bf
00000340: c04c 90be 7489 42be 92a3 49bf 0aa9 45bf
00000350: 71f8 3b3d 1387 533e 1ad6 213e 2875 58be
00000360: ec6e 05be eb88 09be b624 2dbd 368e 75be
00000370: cd60 543d fa23 0dbf b9d0 c9bd 306a 8fbe
00000380: 34cc 703c 8fe5 56be 76f0 98bd 4a54 26bf
00000390: f8ec b8bc 888e c33c 63e1 903c 5043 a0bd
000003a0: 5218 a0bd 4119 683e 7c28 b43d aff2 8dbe
000003b0: 1f34 4e3e 283c 7dbd ee63 ba3c 8ba2 43bd
000003c0: 0780 a13d 7cb6 88be a5dd c5be 3d7f b1bd
000003d0: 464b 83be 08d9 38be 3265 8d3c 1ab1 c2be
000003e0: 1179 50bf f769 84be e57d 3bbd 2231 783c
000003f0: 9409 8a3d 3564 d73d 1365 b8be 413e d1bd

linear.weight f4 [2, 196]
-0.21285632 -0.34387377 0.01625341 0.33515915 0.21432313 -0.06933116 0.1913141 -0.047338344
-0.15135759 0.16524653 -0.00962893 0.078661434 -0.15888947 -0.1811237 0.025497455 -0.08904555
0.31744313 0.3023804 -0.21573506 0.3105124 -0.055187616 0.26982716 -0.18599027 -0.20552662
0.2603046 -0.16767971 0.0620386 0.04225518 -0.30133456 -0.15885207 -0.0021105912 -0.075259864
-0.31296188 -0.029860834 -0.045399584 0.028685715 -0.13627435 -0.044684794 0.31964746 -0.19269013
0.32756487 -0.10204824 0.3092523 -0.18520577 -0.1270759 0.02273849 -0.058181744 0.122687854
0.10112468 -0.117727704 0.11406596 -0.008378583 -0.07031573 -0.24828722 -0.24215327 0.2556661
-0.19932197 0.35646036 -0.22553049 0.25442833 -0.2007974 0.3220868 -0.22558194 -0.18577993
-0.29688796 -0.1207759 -0.21637484 -0.3125598 -0.041828133 -0.0549477 0.2566559 0.21211903
0.042272616 -0.25847915 0.039077953 0.33153573 -0.23106101 0.1860095 -0.24377084 0.026419926
0.21871376 0.14025934 0.17808867 -0.30894426 0.3715219 0.3833507 -0.16555865 0.24949495
0.24041347 -0.10926285 0.28596163 0.08023601 -0.21930344 0.1971488 0.06790971 -0.0035884427
0.02677537 -0.35800678 0.13209063 0.031063965 0.0017907011 -0.1578196 -0.26306367 -0.1485168
-0.19828166 -0.25014594 -0.2321793 0.12270025 -0.24602653 0.14534314 0.3111578 0.03936181
0.14895652 0.16441685 -0.17062211 -0.22111243 0.24255696 0.48674482 -0.3625891 0.067742996
0.2568416 0.26010358 -0.3135858 0.31382266 0.21685848 0.17993185 -0.3240344 -0.20858747
0.24302654 -0.32616356 -0.31440204 0.28414568 -0.2636944 0.0054736147 -0.27637538 -0.12936041
0.31973702 0.047303338 0.2068332 0.07829902 0.20455326 -0.096059166 -0.15409844 -0.18870218
-0.2781099 -0.20048393 0.09411477 -0.18184449 -0.006573584 -0.13113858 0.13471437 0.017876854
-0.20744506 0.3232882 -0.018644776 -0.27328745 0.25241593 0.24114361 0.19136427 -0.005752048
-0.14329189 -0.29415378 -0.0018569985 -0.21011549 0.043308407 0.25957587 0.32741854 -0.30066022
-0.21430156 0.040267143 -0.21086289 0.12888153 0.25134826 0.20329337 -0.11456513 0.28550893
-0.21677767 -0.26396346 0.27820173 -0.115248874 0.042360723 0.27154773 -0.15137307 -0.3442964
-0.40591234 0.20572817 0.17908639 -0.2649707 0.19843636 -0.31853476 -0.18115631 -0.31315643
-0.2036865 0.24649355 -0.064329915 0.20101185 -0.23211999 -0.058930773 0.10784169 0.079796135
0.28387532 0.2577939 0.1175708 -0.13171995 -0.27694607 0.24718793 -0.07854514 -0.023894928
-0.21855289 0.19200264 0.06788823 0.00022009917 0.023385568 0.045831375 0.24088688 0.021506665
0.26476592 0.19715954 -0.25807905 -0.028793229 0.17983645 0.0725463 0.3062341 0.24011807
-0.026300317 -0.21745625 -0.34116575 -0.15008095 -0.17822473 0.2830182 -0.33924243 0.28895387
-0.2848344 0.35890865 -0.038536847 0.0049989773 -0.40329987 0.2846929 0.167082 0.22152178
0.2976355 -0.22648169 0.2643037 -0.2935795 -0.19801733 0.27633992 0.25084886 0.21943936
-0.035946034 -0.08311913 -0.02081992 -0.066694945 -0.28896314 0.052993163 0.039942704 0.07300579
00000000: 02f7 59be 3910 b0be df25 853c fb99 ab3e
00000010: 8677 5b3e 7ffd 8dbd d8e7 433e dae5 41bd
00000020: 7cfd 1abe 6336 293e a9c2 1dbc 3f19 a13d
00000030: ecb3 22be 7e78 39be 0ae0 d03c 835d b6bd
00000040: e887 a23e 9bd1 9a3e a7e9 5cbe 7bfb 9e3e
00000050: 690c 62bd c926 8a3e 3c74 3ebe 9275 52be
00000060: a546 853e 3bb4 2bbe 301c 7e3d c513 2d3d
00000070: 8648 9abe 1eaa 22be d851 0abb d821 9abd
00000080: 8a3c a0be b59e f4bc eaf4 39bd 4efe ea3c
00000090: 818b 0bbe 6707 37bd d5a8 a33e 9050 45be
000000a0: 95b6 a73e abfe d0bd 5156 9e3e 95a6 3dbe
000000b0: 2f20 02be 1246 ba3c fb4f 6ebd c543 fb3d
000000c0: 751a cf3d 391b f1bd 6a9b e93d 5346 09bc
000000d0: b201 90bd 013f 7ebe 07f7 77be abe6 823e
000000e0: 0f1b 4cbe f981 b63e 77f1 66be 6e44 823e
000000f0: d59d 4dbe 90e8 a43e f4fe 66be 183d 3ebe
00000100: b301 98be 5b59 f7bd 5e91 5dbe d707 a0be
00000110: fa53 2bbd d710 61bd 6768 833e bb35 593e
00000120: 0d26 2d3d 6157 84be 3410 203d 0dbf a93e
00000130: 429b 6cbe 4679 3e3e 109f 79be 9a6e d83c
00000140: 80f6 5f3e 25a0 0f3e e05c 363e f12d 9ebe
00000150: 1e38 be3e 8b46 c43e 3588 29be 9b7b 7f3e
00000160: f32e 763e 33c5 dfbd 9069 923e c752 a43d
00000170: 1591 60be 60e1 493e 3f14 8b3d 142c 6bbb
00000180: 0558 db3c aa4c b7be c442 073e db79 fe3c
00000190: f5b5 ea3a 769b 21be 48b0 86be ca14 18be
000001a0: 590a 4bbe 2113 80be 69c0 6dbe 454a fb3d
000001b0: 61ee 7bbe d5d4 143e 1350 9f3e d939 213d
000001c0: 0f88 183e e45c 283e 90b7 2ebe 4c6b 62be
000001d0: da60 783e 9e36 f93e 47a5 b9be d7bc 8a3d
000001e0: be80 833e 4c2c 853e 518e a0be 5dad a03e
000001f0: 2610 5e3e 0e40 383e d6e7 a5be f497 55be
00000200: f3db 783e e9fe a6be 4ef9 a0be 8b7b 913e
00000210: f402 87be 025c b33b 1381 8dbe 0e77 04be
00000220: 92b4 a33e 25c1 413d 15cc 533e 3d5b a03d
00000230: 6976 513e abba c4bd fbcb 1dbe 253b 41be
00000240: 6c64 8ebe a94b 4dbe 3fbf c03d 7135 3abe
00000250: 3867 d7bb 3149 06be 90f2 093e 7b72 923c
00000260: 7a6c 54be 0886 a53e eebc 98bc 55ec 8bbe
00000270: a93c 813e 5aee 763e fff4 433e ad7b bcbb
00000280: 1cbb 12be 539b 96be 8866 f3ba 8428 57be
00000290: 2864 313d 21e7 843e 67a3 a73e 23f0 99be
000002a0: de71 5bbe 29ef 243d 71ec 57be 85f9 033e
000002b0: b8b0 803e 232c 503e 1fa1 eabd 3a2e 923e
000002c0: f7fa 5dbe 3826 87be 7570 8e3e 9a07 ecbd
000002d0: 7082 2d3d 4e08 8b3e 8b01 1bbe 9e47 b0be
000002e0: bed3 cfbe 68aa 523e 6c62 373e 3daa 87be
000002f0: e732 4b3e fd16 a3be 0a81 39be 0a56 a0be
00000300: 3293 50be ce68 7c3e 67bf 83bd 0dd6 4d3e
00000310: ddb0 6dbe 6561 71bd 1bdc dc3d 286c a33d
00000320: 1b58 913e 90fd 833e f6c8 f03d 98e1 06be
00000330: e0cb 8dbe d51e 7d3e 46dc a0bd 4cbf c3bc
00000340: 54cc 5fbe 579c 443e fc08 8b3d 6cca 6639
00000350: 1793 bf3c aeb9 3b3d 0dab 763e bf2e b03c
00000360: 668f 873e 31e4 493e f022 84be c7df ebbc
00000370: 0c27 383e 2893 943d b7ca 9c3e 83e1 753e
00000380: c373 d7bc daac 5ebe 47ad aebe d2ae 19be
00000390: 8b80 36be c3e7 903e 2fb1 adbe c3f1 933e
000003a0: d1d5 91be e0c2 b73e d0d8 1dbd 76ce a33b
000003b0: 527d cebe 45c3 913e 8b17 2b3e 9bd6 623e
000003c0: ae63 983e d1ea 67be d152 873e 0d50 96be
000003d0: 0ec5 4abe 6d7c 8d3e 436f 803e b6b4 603e
000003e0: 263c 13bd 5d3a aabd 898e aabc 5c97 88bd
000003f0: faf2 93be 5c0f 593d f69a 233d 0f84 953d

linear.bias f4 [2]
-0.060507 0.0013482193
00000000: 30d6 77bd bcb6 b03a
